<?xml version="1.0" ?>
<net batch="1" name="fruits" version="6">
	<layers>
		<layer id="0" name="input.1" precision="FP32" type="Input">
			<output>
				<port id="0">
					<dim>1</dim>
					<dim>3</dim>
					<dim>100</dim>
					<dim>100</dim>
				</port>
			</output>
		</layer>
		<layer id="1" name="1018" precision="FP32" type="Convolution">
			<data dilations="1,1" group="1" kernel="7,7" output="64" pads_begin="3,3" pads_end="3,3" strides="2,2"/>
			<input>
				<port id="0">
					<dim>1</dim>
					<dim>3</dim>
					<dim>100</dim>
					<dim>100</dim>
				</port>
			</input>
			<output>
				<port id="3">
					<dim>1</dim>
					<dim>64</dim>
					<dim>50</dim>
					<dim>50</dim>
				</port>
			</output>
			<blobs>
				<weights offset="0" size="37632"/>
				<biases offset="37632" size="256"/>
			</blobs>
		</layer>
		<layer id="2" name="1020" precision="FP32" type="ReLU">
			<input>
				<port id="0">
					<dim>1</dim>
					<dim>64</dim>
					<dim>50</dim>
					<dim>50</dim>
				</port>
			</input>
			<output>
				<port id="1">
					<dim>1</dim>
					<dim>64</dim>
					<dim>50</dim>
					<dim>50</dim>
				</port>
			</output>
		</layer>
		<layer id="3" name="1021" precision="FP32" type="Pooling">
			<data exclude-pad="true" kernel="3,3" pads_begin="1,1" pads_end="1,1" pool-method="max" rounding_type="floor" strides="2,2"/>
			<input>
				<port id="0">
					<dim>1</dim>
					<dim>64</dim>
					<dim>50</dim>
					<dim>50</dim>
				</port>
			</input>
			<output>
				<port id="1">
					<dim>1</dim>
					<dim>64</dim>
					<dim>25</dim>
					<dim>25</dim>
				</port>
			</output>
		</layer>
		<layer id="4" name="1022" precision="FP32" type="Concat">
			<data axis="1"/>
			<input>
				<port id="0">
					<dim>1</dim>
					<dim>64</dim>
					<dim>25</dim>
					<dim>25</dim>
				</port>
			</input>
			<output>
				<port id="1">
					<dim>1</dim>
					<dim>64</dim>
					<dim>25</dim>
					<dim>25</dim>
				</port>
			</output>
		</layer>
		<layer id="5" name="Mul1_20176/Fused_Mul_/FusedScaleShift_" precision="FP32" type="ScaleShift">
			<input>
				<port id="0">
					<dim>1</dim>
					<dim>64</dim>
					<dim>25</dim>
					<dim>25</dim>
				</port>
			</input>
			<output>
				<port id="3">
					<dim>1</dim>
					<dim>64</dim>
					<dim>25</dim>
					<dim>25</dim>
				</port>
			</output>
			<blobs>
				<weights offset="37888" size="256"/>
				<biases offset="38144" size="256"/>
			</blobs>
		</layer>
		<layer id="6" name="1024" precision="FP32" type="ReLU">
			<input>
				<port id="0">
					<dim>1</dim>
					<dim>64</dim>
					<dim>25</dim>
					<dim>25</dim>
				</port>
			</input>
			<output>
				<port id="1">
					<dim>1</dim>
					<dim>64</dim>
					<dim>25</dim>
					<dim>25</dim>
				</port>
			</output>
		</layer>
		<layer id="7" name="1025" precision="FP32" type="Convolution">
			<data dilations="1,1" group="1" kernel="1,1" output="128" pads_begin="0,0" pads_end="0,0" strides="1,1"/>
			<input>
				<port id="0">
					<dim>1</dim>
					<dim>64</dim>
					<dim>25</dim>
					<dim>25</dim>
				</port>
			</input>
			<output>
				<port id="3">
					<dim>1</dim>
					<dim>128</dim>
					<dim>25</dim>
					<dim>25</dim>
				</port>
			</output>
			<blobs>
				<weights offset="38400" size="32768"/>
				<biases offset="71168" size="512"/>
			</blobs>
		</layer>
		<layer id="8" name="1027" precision="FP32" type="ReLU">
			<input>
				<port id="0">
					<dim>1</dim>
					<dim>128</dim>
					<dim>25</dim>
					<dim>25</dim>
				</port>
			</input>
			<output>
				<port id="1">
					<dim>1</dim>
					<dim>128</dim>
					<dim>25</dim>
					<dim>25</dim>
				</port>
			</output>
		</layer>
		<layer id="9" name="1028" precision="FP32" type="Convolution">
			<data dilations="1,1" group="1" kernel="3,3" output="32" pads_begin="1,1" pads_end="1,1" strides="1,1"/>
			<input>
				<port id="0">
					<dim>1</dim>
					<dim>128</dim>
					<dim>25</dim>
					<dim>25</dim>
				</port>
			</input>
			<output>
				<port id="2">
					<dim>1</dim>
					<dim>32</dim>
					<dim>25</dim>
					<dim>25</dim>
				</port>
			</output>
			<blobs>
				<weights offset="71680" size="147456"/>
			</blobs>
		</layer>
		<layer id="10" name="1029" precision="FP32" type="Concat">
			<data axis="1"/>
			<input>
				<port id="0">
					<dim>1</dim>
					<dim>64</dim>
					<dim>25</dim>
					<dim>25</dim>
				</port>
				<port id="1">
					<dim>1</dim>
					<dim>32</dim>
					<dim>25</dim>
					<dim>25</dim>
				</port>
			</input>
			<output>
				<port id="2">
					<dim>1</dim>
					<dim>96</dim>
					<dim>25</dim>
					<dim>25</dim>
				</port>
			</output>
		</layer>
		<layer id="11" name="Mul1_19264/Fused_Mul_/FusedScaleShift_" precision="FP32" type="ScaleShift">
			<input>
				<port id="0">
					<dim>1</dim>
					<dim>96</dim>
					<dim>25</dim>
					<dim>25</dim>
				</port>
			</input>
			<output>
				<port id="3">
					<dim>1</dim>
					<dim>96</dim>
					<dim>25</dim>
					<dim>25</dim>
				</port>
			</output>
			<blobs>
				<weights offset="219136" size="384"/>
				<biases offset="219520" size="384"/>
			</blobs>
		</layer>
		<layer id="12" name="1031" precision="FP32" type="ReLU">
			<input>
				<port id="0">
					<dim>1</dim>
					<dim>96</dim>
					<dim>25</dim>
					<dim>25</dim>
				</port>
			</input>
			<output>
				<port id="1">
					<dim>1</dim>
					<dim>96</dim>
					<dim>25</dim>
					<dim>25</dim>
				</port>
			</output>
		</layer>
		<layer id="13" name="1032" precision="FP32" type="Convolution">
			<data dilations="1,1" group="1" kernel="1,1" output="128" pads_begin="0,0" pads_end="0,0" strides="1,1"/>
			<input>
				<port id="0">
					<dim>1</dim>
					<dim>96</dim>
					<dim>25</dim>
					<dim>25</dim>
				</port>
			</input>
			<output>
				<port id="3">
					<dim>1</dim>
					<dim>128</dim>
					<dim>25</dim>
					<dim>25</dim>
				</port>
			</output>
			<blobs>
				<weights offset="219904" size="49152"/>
				<biases offset="269056" size="512"/>
			</blobs>
		</layer>
		<layer id="14" name="1034" precision="FP32" type="ReLU">
			<input>
				<port id="0">
					<dim>1</dim>
					<dim>128</dim>
					<dim>25</dim>
					<dim>25</dim>
				</port>
			</input>
			<output>
				<port id="1">
					<dim>1</dim>
					<dim>128</dim>
					<dim>25</dim>
					<dim>25</dim>
				</port>
			</output>
		</layer>
		<layer id="15" name="1035" precision="FP32" type="Convolution">
			<data dilations="1,1" group="1" kernel="3,3" output="32" pads_begin="1,1" pads_end="1,1" strides="1,1"/>
			<input>
				<port id="0">
					<dim>1</dim>
					<dim>128</dim>
					<dim>25</dim>
					<dim>25</dim>
				</port>
			</input>
			<output>
				<port id="2">
					<dim>1</dim>
					<dim>32</dim>
					<dim>25</dim>
					<dim>25</dim>
				</port>
			</output>
			<blobs>
				<weights offset="269568" size="147456"/>
			</blobs>
		</layer>
		<layer id="16" name="1036" precision="FP32" type="Concat">
			<data axis="1"/>
			<input>
				<port id="0">
					<dim>1</dim>
					<dim>64</dim>
					<dim>25</dim>
					<dim>25</dim>
				</port>
				<port id="1">
					<dim>1</dim>
					<dim>32</dim>
					<dim>25</dim>
					<dim>25</dim>
				</port>
				<port id="2">
					<dim>1</dim>
					<dim>32</dim>
					<dim>25</dim>
					<dim>25</dim>
				</port>
			</input>
			<output>
				<port id="3">
					<dim>1</dim>
					<dim>128</dim>
					<dim>25</dim>
					<dim>25</dim>
				</port>
			</output>
		</layer>
		<layer id="17" name="Mul1_21208/Fused_Mul_/FusedScaleShift_" precision="FP32" type="ScaleShift">
			<input>
				<port id="0">
					<dim>1</dim>
					<dim>128</dim>
					<dim>25</dim>
					<dim>25</dim>
				</port>
			</input>
			<output>
				<port id="3">
					<dim>1</dim>
					<dim>128</dim>
					<dim>25</dim>
					<dim>25</dim>
				</port>
			</output>
			<blobs>
				<weights offset="417024" size="512"/>
				<biases offset="417536" size="512"/>
			</blobs>
		</layer>
		<layer id="18" name="1038" precision="FP32" type="ReLU">
			<input>
				<port id="0">
					<dim>1</dim>
					<dim>128</dim>
					<dim>25</dim>
					<dim>25</dim>
				</port>
			</input>
			<output>
				<port id="1">
					<dim>1</dim>
					<dim>128</dim>
					<dim>25</dim>
					<dim>25</dim>
				</port>
			</output>
		</layer>
		<layer id="19" name="1039" precision="FP32" type="Convolution">
			<data dilations="1,1" group="1" kernel="1,1" output="128" pads_begin="0,0" pads_end="0,0" strides="1,1"/>
			<input>
				<port id="0">
					<dim>1</dim>
					<dim>128</dim>
					<dim>25</dim>
					<dim>25</dim>
				</port>
			</input>
			<output>
				<port id="3">
					<dim>1</dim>
					<dim>128</dim>
					<dim>25</dim>
					<dim>25</dim>
				</port>
			</output>
			<blobs>
				<weights offset="418048" size="65536"/>
				<biases offset="483584" size="512"/>
			</blobs>
		</layer>
		<layer id="20" name="1041" precision="FP32" type="ReLU">
			<input>
				<port id="0">
					<dim>1</dim>
					<dim>128</dim>
					<dim>25</dim>
					<dim>25</dim>
				</port>
			</input>
			<output>
				<port id="1">
					<dim>1</dim>
					<dim>128</dim>
					<dim>25</dim>
					<dim>25</dim>
				</port>
			</output>
		</layer>
		<layer id="21" name="1042" precision="FP32" type="Convolution">
			<data dilations="1,1" group="1" kernel="3,3" output="32" pads_begin="1,1" pads_end="1,1" strides="1,1"/>
			<input>
				<port id="0">
					<dim>1</dim>
					<dim>128</dim>
					<dim>25</dim>
					<dim>25</dim>
				</port>
			</input>
			<output>
				<port id="2">
					<dim>1</dim>
					<dim>32</dim>
					<dim>25</dim>
					<dim>25</dim>
				</port>
			</output>
			<blobs>
				<weights offset="484096" size="147456"/>
			</blobs>
		</layer>
		<layer id="22" name="1043" precision="FP32" type="Concat">
			<data axis="1"/>
			<input>
				<port id="0">
					<dim>1</dim>
					<dim>64</dim>
					<dim>25</dim>
					<dim>25</dim>
				</port>
				<port id="1">
					<dim>1</dim>
					<dim>32</dim>
					<dim>25</dim>
					<dim>25</dim>
				</port>
				<port id="2">
					<dim>1</dim>
					<dim>32</dim>
					<dim>25</dim>
					<dim>25</dim>
				</port>
				<port id="3">
					<dim>1</dim>
					<dim>32</dim>
					<dim>25</dim>
					<dim>25</dim>
				</port>
			</input>
			<output>
				<port id="4">
					<dim>1</dim>
					<dim>160</dim>
					<dim>25</dim>
					<dim>25</dim>
				</port>
			</output>
		</layer>
		<layer id="23" name="Mul1_20104/Fused_Mul_/FusedScaleShift_" precision="FP32" type="ScaleShift">
			<input>
				<port id="0">
					<dim>1</dim>
					<dim>160</dim>
					<dim>25</dim>
					<dim>25</dim>
				</port>
			</input>
			<output>
				<port id="3">
					<dim>1</dim>
					<dim>160</dim>
					<dim>25</dim>
					<dim>25</dim>
				</port>
			</output>
			<blobs>
				<weights offset="631552" size="640"/>
				<biases offset="632192" size="640"/>
			</blobs>
		</layer>
		<layer id="24" name="1045" precision="FP32" type="ReLU">
			<input>
				<port id="0">
					<dim>1</dim>
					<dim>160</dim>
					<dim>25</dim>
					<dim>25</dim>
				</port>
			</input>
			<output>
				<port id="1">
					<dim>1</dim>
					<dim>160</dim>
					<dim>25</dim>
					<dim>25</dim>
				</port>
			</output>
		</layer>
		<layer id="25" name="1046" precision="FP32" type="Convolution">
			<data dilations="1,1" group="1" kernel="1,1" output="128" pads_begin="0,0" pads_end="0,0" strides="1,1"/>
			<input>
				<port id="0">
					<dim>1</dim>
					<dim>160</dim>
					<dim>25</dim>
					<dim>25</dim>
				</port>
			</input>
			<output>
				<port id="3">
					<dim>1</dim>
					<dim>128</dim>
					<dim>25</dim>
					<dim>25</dim>
				</port>
			</output>
			<blobs>
				<weights offset="632832" size="81920"/>
				<biases offset="714752" size="512"/>
			</blobs>
		</layer>
		<layer id="26" name="1048" precision="FP32" type="ReLU">
			<input>
				<port id="0">
					<dim>1</dim>
					<dim>128</dim>
					<dim>25</dim>
					<dim>25</dim>
				</port>
			</input>
			<output>
				<port id="1">
					<dim>1</dim>
					<dim>128</dim>
					<dim>25</dim>
					<dim>25</dim>
				</port>
			</output>
		</layer>
		<layer id="27" name="1049" precision="FP32" type="Convolution">
			<data dilations="1,1" group="1" kernel="3,3" output="32" pads_begin="1,1" pads_end="1,1" strides="1,1"/>
			<input>
				<port id="0">
					<dim>1</dim>
					<dim>128</dim>
					<dim>25</dim>
					<dim>25</dim>
				</port>
			</input>
			<output>
				<port id="2">
					<dim>1</dim>
					<dim>32</dim>
					<dim>25</dim>
					<dim>25</dim>
				</port>
			</output>
			<blobs>
				<weights offset="715264" size="147456"/>
			</blobs>
		</layer>
		<layer id="28" name="1050" precision="FP32" type="Concat">
			<data axis="1"/>
			<input>
				<port id="0">
					<dim>1</dim>
					<dim>64</dim>
					<dim>25</dim>
					<dim>25</dim>
				</port>
				<port id="1">
					<dim>1</dim>
					<dim>32</dim>
					<dim>25</dim>
					<dim>25</dim>
				</port>
				<port id="2">
					<dim>1</dim>
					<dim>32</dim>
					<dim>25</dim>
					<dim>25</dim>
				</port>
				<port id="3">
					<dim>1</dim>
					<dim>32</dim>
					<dim>25</dim>
					<dim>25</dim>
				</port>
				<port id="4">
					<dim>1</dim>
					<dim>32</dim>
					<dim>25</dim>
					<dim>25</dim>
				</port>
			</input>
			<output>
				<port id="5">
					<dim>1</dim>
					<dim>192</dim>
					<dim>25</dim>
					<dim>25</dim>
				</port>
			</output>
		</layer>
		<layer id="29" name="Mul1_19840/Fused_Mul_/FusedScaleShift_" precision="FP32" type="ScaleShift">
			<input>
				<port id="0">
					<dim>1</dim>
					<dim>192</dim>
					<dim>25</dim>
					<dim>25</dim>
				</port>
			</input>
			<output>
				<port id="3">
					<dim>1</dim>
					<dim>192</dim>
					<dim>25</dim>
					<dim>25</dim>
				</port>
			</output>
			<blobs>
				<weights offset="862720" size="768"/>
				<biases offset="863488" size="768"/>
			</blobs>
		</layer>
		<layer id="30" name="1052" precision="FP32" type="ReLU">
			<input>
				<port id="0">
					<dim>1</dim>
					<dim>192</dim>
					<dim>25</dim>
					<dim>25</dim>
				</port>
			</input>
			<output>
				<port id="1">
					<dim>1</dim>
					<dim>192</dim>
					<dim>25</dim>
					<dim>25</dim>
				</port>
			</output>
		</layer>
		<layer id="31" name="1053" precision="FP32" type="Convolution">
			<data dilations="1,1" group="1" kernel="1,1" output="128" pads_begin="0,0" pads_end="0,0" strides="1,1"/>
			<input>
				<port id="0">
					<dim>1</dim>
					<dim>192</dim>
					<dim>25</dim>
					<dim>25</dim>
				</port>
			</input>
			<output>
				<port id="3">
					<dim>1</dim>
					<dim>128</dim>
					<dim>25</dim>
					<dim>25</dim>
				</port>
			</output>
			<blobs>
				<weights offset="864256" size="98304"/>
				<biases offset="962560" size="512"/>
			</blobs>
		</layer>
		<layer id="32" name="1055" precision="FP32" type="ReLU">
			<input>
				<port id="0">
					<dim>1</dim>
					<dim>128</dim>
					<dim>25</dim>
					<dim>25</dim>
				</port>
			</input>
			<output>
				<port id="1">
					<dim>1</dim>
					<dim>128</dim>
					<dim>25</dim>
					<dim>25</dim>
				</port>
			</output>
		</layer>
		<layer id="33" name="1056" precision="FP32" type="Convolution">
			<data dilations="1,1" group="1" kernel="3,3" output="32" pads_begin="1,1" pads_end="1,1" strides="1,1"/>
			<input>
				<port id="0">
					<dim>1</dim>
					<dim>128</dim>
					<dim>25</dim>
					<dim>25</dim>
				</port>
			</input>
			<output>
				<port id="2">
					<dim>1</dim>
					<dim>32</dim>
					<dim>25</dim>
					<dim>25</dim>
				</port>
			</output>
			<blobs>
				<weights offset="963072" size="147456"/>
			</blobs>
		</layer>
		<layer id="34" name="1057" precision="FP32" type="Concat">
			<data axis="1"/>
			<input>
				<port id="0">
					<dim>1</dim>
					<dim>64</dim>
					<dim>25</dim>
					<dim>25</dim>
				</port>
				<port id="1">
					<dim>1</dim>
					<dim>32</dim>
					<dim>25</dim>
					<dim>25</dim>
				</port>
				<port id="2">
					<dim>1</dim>
					<dim>32</dim>
					<dim>25</dim>
					<dim>25</dim>
				</port>
				<port id="3">
					<dim>1</dim>
					<dim>32</dim>
					<dim>25</dim>
					<dim>25</dim>
				</port>
				<port id="4">
					<dim>1</dim>
					<dim>32</dim>
					<dim>25</dim>
					<dim>25</dim>
				</port>
				<port id="5">
					<dim>1</dim>
					<dim>32</dim>
					<dim>25</dim>
					<dim>25</dim>
				</port>
			</input>
			<output>
				<port id="6">
					<dim>1</dim>
					<dim>224</dim>
					<dim>25</dim>
					<dim>25</dim>
				</port>
			</output>
		</layer>
		<layer id="35" name="Mul1_/Fused_Mul_/FusedScaleShift_" precision="FP32" type="ScaleShift">
			<input>
				<port id="0">
					<dim>1</dim>
					<dim>224</dim>
					<dim>25</dim>
					<dim>25</dim>
				</port>
			</input>
			<output>
				<port id="3">
					<dim>1</dim>
					<dim>224</dim>
					<dim>25</dim>
					<dim>25</dim>
				</port>
			</output>
			<blobs>
				<weights offset="1110528" size="896"/>
				<biases offset="1111424" size="896"/>
			</blobs>
		</layer>
		<layer id="36" name="1059" precision="FP32" type="ReLU">
			<input>
				<port id="0">
					<dim>1</dim>
					<dim>224</dim>
					<dim>25</dim>
					<dim>25</dim>
				</port>
			</input>
			<output>
				<port id="1">
					<dim>1</dim>
					<dim>224</dim>
					<dim>25</dim>
					<dim>25</dim>
				</port>
			</output>
		</layer>
		<layer id="37" name="1060" precision="FP32" type="Convolution">
			<data dilations="1,1" group="1" kernel="1,1" output="128" pads_begin="0,0" pads_end="0,0" strides="1,1"/>
			<input>
				<port id="0">
					<dim>1</dim>
					<dim>224</dim>
					<dim>25</dim>
					<dim>25</dim>
				</port>
			</input>
			<output>
				<port id="3">
					<dim>1</dim>
					<dim>128</dim>
					<dim>25</dim>
					<dim>25</dim>
				</port>
			</output>
			<blobs>
				<weights offset="1112320" size="114688"/>
				<biases offset="1227008" size="512"/>
			</blobs>
		</layer>
		<layer id="38" name="1062" precision="FP32" type="ReLU">
			<input>
				<port id="0">
					<dim>1</dim>
					<dim>128</dim>
					<dim>25</dim>
					<dim>25</dim>
				</port>
			</input>
			<output>
				<port id="1">
					<dim>1</dim>
					<dim>128</dim>
					<dim>25</dim>
					<dim>25</dim>
				</port>
			</output>
		</layer>
		<layer id="39" name="1063" precision="FP32" type="Convolution">
			<data dilations="1,1" group="1" kernel="3,3" output="32" pads_begin="1,1" pads_end="1,1" strides="1,1"/>
			<input>
				<port id="0">
					<dim>1</dim>
					<dim>128</dim>
					<dim>25</dim>
					<dim>25</dim>
				</port>
			</input>
			<output>
				<port id="2">
					<dim>1</dim>
					<dim>32</dim>
					<dim>25</dim>
					<dim>25</dim>
				</port>
			</output>
			<blobs>
				<weights offset="1227520" size="147456"/>
			</blobs>
		</layer>
		<layer id="40" name="1064" precision="FP32" type="Concat">
			<data axis="1"/>
			<input>
				<port id="0">
					<dim>1</dim>
					<dim>64</dim>
					<dim>25</dim>
					<dim>25</dim>
				</port>
				<port id="1">
					<dim>1</dim>
					<dim>32</dim>
					<dim>25</dim>
					<dim>25</dim>
				</port>
				<port id="2">
					<dim>1</dim>
					<dim>32</dim>
					<dim>25</dim>
					<dim>25</dim>
				</port>
				<port id="3">
					<dim>1</dim>
					<dim>32</dim>
					<dim>25</dim>
					<dim>25</dim>
				</port>
				<port id="4">
					<dim>1</dim>
					<dim>32</dim>
					<dim>25</dim>
					<dim>25</dim>
				</port>
				<port id="5">
					<dim>1</dim>
					<dim>32</dim>
					<dim>25</dim>
					<dim>25</dim>
				</port>
				<port id="6">
					<dim>1</dim>
					<dim>32</dim>
					<dim>25</dim>
					<dim>25</dim>
				</port>
			</input>
			<output>
				<port id="7">
					<dim>1</dim>
					<dim>256</dim>
					<dim>25</dim>
					<dim>25</dim>
				</port>
			</output>
		</layer>
		<layer id="41" name="Mul1_19864/Fused_Mul_/FusedScaleShift_" precision="FP32" type="ScaleShift">
			<input>
				<port id="0">
					<dim>1</dim>
					<dim>256</dim>
					<dim>25</dim>
					<dim>25</dim>
				</port>
			</input>
			<output>
				<port id="3">
					<dim>1</dim>
					<dim>256</dim>
					<dim>25</dim>
					<dim>25</dim>
				</port>
			</output>
			<blobs>
				<weights offset="1374976" size="1024"/>
				<biases offset="1376000" size="1024"/>
			</blobs>
		</layer>
		<layer id="42" name="1066" precision="FP32" type="ReLU">
			<input>
				<port id="0">
					<dim>1</dim>
					<dim>256</dim>
					<dim>25</dim>
					<dim>25</dim>
				</port>
			</input>
			<output>
				<port id="1">
					<dim>1</dim>
					<dim>256</dim>
					<dim>25</dim>
					<dim>25</dim>
				</port>
			</output>
		</layer>
		<layer id="43" name="1067" precision="FP32" type="Convolution">
			<data dilations="1,1" group="1" kernel="1,1" output="128" pads_begin="0,0" pads_end="0,0" strides="1,1"/>
			<input>
				<port id="0">
					<dim>1</dim>
					<dim>256</dim>
					<dim>25</dim>
					<dim>25</dim>
				</port>
			</input>
			<output>
				<port id="2">
					<dim>1</dim>
					<dim>128</dim>
					<dim>25</dim>
					<dim>25</dim>
				</port>
			</output>
			<blobs>
				<weights offset="1377024" size="131072"/>
			</blobs>
		</layer>
		<layer id="44" name="1069" precision="FP32" type="Pooling">
			<data exclude-pad="true" kernel="2,2" pads_begin="0,0" pads_end="0,0" pool-method="avg" rounding_type="floor" strides="2,2"/>
			<input>
				<port id="0">
					<dim>1</dim>
					<dim>128</dim>
					<dim>25</dim>
					<dim>25</dim>
				</port>
			</input>
			<output>
				<port id="1">
					<dim>1</dim>
					<dim>128</dim>
					<dim>12</dim>
					<dim>12</dim>
				</port>
			</output>
		</layer>
		<layer id="45" name="1070" precision="FP32" type="Concat">
			<data axis="1"/>
			<input>
				<port id="0">
					<dim>1</dim>
					<dim>128</dim>
					<dim>12</dim>
					<dim>12</dim>
				</port>
			</input>
			<output>
				<port id="1">
					<dim>1</dim>
					<dim>128</dim>
					<dim>12</dim>
					<dim>12</dim>
				</port>
			</output>
		</layer>
		<layer id="46" name="Mul1_19288/Fused_Mul_/FusedScaleShift_" precision="FP32" type="ScaleShift">
			<input>
				<port id="0">
					<dim>1</dim>
					<dim>128</dim>
					<dim>12</dim>
					<dim>12</dim>
				</port>
			</input>
			<output>
				<port id="3">
					<dim>1</dim>
					<dim>128</dim>
					<dim>12</dim>
					<dim>12</dim>
				</port>
			</output>
			<blobs>
				<weights offset="1508096" size="512"/>
				<biases offset="1508608" size="512"/>
			</blobs>
		</layer>
		<layer id="47" name="1072" precision="FP32" type="ReLU">
			<input>
				<port id="0">
					<dim>1</dim>
					<dim>128</dim>
					<dim>12</dim>
					<dim>12</dim>
				</port>
			</input>
			<output>
				<port id="1">
					<dim>1</dim>
					<dim>128</dim>
					<dim>12</dim>
					<dim>12</dim>
				</port>
			</output>
		</layer>
		<layer id="48" name="1073" precision="FP32" type="Convolution">
			<data dilations="1,1" group="1" kernel="1,1" output="128" pads_begin="0,0" pads_end="0,0" strides="1,1"/>
			<input>
				<port id="0">
					<dim>1</dim>
					<dim>128</dim>
					<dim>12</dim>
					<dim>12</dim>
				</port>
			</input>
			<output>
				<port id="3">
					<dim>1</dim>
					<dim>128</dim>
					<dim>12</dim>
					<dim>12</dim>
				</port>
			</output>
			<blobs>
				<weights offset="1509120" size="65536"/>
				<biases offset="1574656" size="512"/>
			</blobs>
		</layer>
		<layer id="49" name="1075" precision="FP32" type="ReLU">
			<input>
				<port id="0">
					<dim>1</dim>
					<dim>128</dim>
					<dim>12</dim>
					<dim>12</dim>
				</port>
			</input>
			<output>
				<port id="1">
					<dim>1</dim>
					<dim>128</dim>
					<dim>12</dim>
					<dim>12</dim>
				</port>
			</output>
		</layer>
		<layer id="50" name="1076" precision="FP32" type="Convolution">
			<data dilations="1,1" group="1" kernel="3,3" output="32" pads_begin="1,1" pads_end="1,1" strides="1,1"/>
			<input>
				<port id="0">
					<dim>1</dim>
					<dim>128</dim>
					<dim>12</dim>
					<dim>12</dim>
				</port>
			</input>
			<output>
				<port id="2">
					<dim>1</dim>
					<dim>32</dim>
					<dim>12</dim>
					<dim>12</dim>
				</port>
			</output>
			<blobs>
				<weights offset="1575168" size="147456"/>
			</blobs>
		</layer>
		<layer id="51" name="1077" precision="FP32" type="Concat">
			<data axis="1"/>
			<input>
				<port id="0">
					<dim>1</dim>
					<dim>128</dim>
					<dim>12</dim>
					<dim>12</dim>
				</port>
				<port id="1">
					<dim>1</dim>
					<dim>32</dim>
					<dim>12</dim>
					<dim>12</dim>
				</port>
			</input>
			<output>
				<port id="2">
					<dim>1</dim>
					<dim>160</dim>
					<dim>12</dim>
					<dim>12</dim>
				</port>
			</output>
		</layer>
		<layer id="52" name="Mul1_19708/Fused_Mul_/FusedScaleShift_" precision="FP32" type="ScaleShift">
			<input>
				<port id="0">
					<dim>1</dim>
					<dim>160</dim>
					<dim>12</dim>
					<dim>12</dim>
				</port>
			</input>
			<output>
				<port id="3">
					<dim>1</dim>
					<dim>160</dim>
					<dim>12</dim>
					<dim>12</dim>
				</port>
			</output>
			<blobs>
				<weights offset="1722624" size="640"/>
				<biases offset="1723264" size="640"/>
			</blobs>
		</layer>
		<layer id="53" name="1079" precision="FP32" type="ReLU">
			<input>
				<port id="0">
					<dim>1</dim>
					<dim>160</dim>
					<dim>12</dim>
					<dim>12</dim>
				</port>
			</input>
			<output>
				<port id="1">
					<dim>1</dim>
					<dim>160</dim>
					<dim>12</dim>
					<dim>12</dim>
				</port>
			</output>
		</layer>
		<layer id="54" name="1080" precision="FP32" type="Convolution">
			<data dilations="1,1" group="1" kernel="1,1" output="128" pads_begin="0,0" pads_end="0,0" strides="1,1"/>
			<input>
				<port id="0">
					<dim>1</dim>
					<dim>160</dim>
					<dim>12</dim>
					<dim>12</dim>
				</port>
			</input>
			<output>
				<port id="3">
					<dim>1</dim>
					<dim>128</dim>
					<dim>12</dim>
					<dim>12</dim>
				</port>
			</output>
			<blobs>
				<weights offset="1723904" size="81920"/>
				<biases offset="1805824" size="512"/>
			</blobs>
		</layer>
		<layer id="55" name="1082" precision="FP32" type="ReLU">
			<input>
				<port id="0">
					<dim>1</dim>
					<dim>128</dim>
					<dim>12</dim>
					<dim>12</dim>
				</port>
			</input>
			<output>
				<port id="1">
					<dim>1</dim>
					<dim>128</dim>
					<dim>12</dim>
					<dim>12</dim>
				</port>
			</output>
		</layer>
		<layer id="56" name="1083" precision="FP32" type="Convolution">
			<data dilations="1,1" group="1" kernel="3,3" output="32" pads_begin="1,1" pads_end="1,1" strides="1,1"/>
			<input>
				<port id="0">
					<dim>1</dim>
					<dim>128</dim>
					<dim>12</dim>
					<dim>12</dim>
				</port>
			</input>
			<output>
				<port id="2">
					<dim>1</dim>
					<dim>32</dim>
					<dim>12</dim>
					<dim>12</dim>
				</port>
			</output>
			<blobs>
				<weights offset="1806336" size="147456"/>
			</blobs>
		</layer>
		<layer id="57" name="1084" precision="FP32" type="Concat">
			<data axis="1"/>
			<input>
				<port id="0">
					<dim>1</dim>
					<dim>128</dim>
					<dim>12</dim>
					<dim>12</dim>
				</port>
				<port id="1">
					<dim>1</dim>
					<dim>32</dim>
					<dim>12</dim>
					<dim>12</dim>
				</port>
				<port id="2">
					<dim>1</dim>
					<dim>32</dim>
					<dim>12</dim>
					<dim>12</dim>
				</port>
			</input>
			<output>
				<port id="3">
					<dim>1</dim>
					<dim>192</dim>
					<dim>12</dim>
					<dim>12</dim>
				</port>
			</output>
		</layer>
		<layer id="58" name="Mul1_19876/Fused_Mul_/FusedScaleShift_" precision="FP32" type="ScaleShift">
			<input>
				<port id="0">
					<dim>1</dim>
					<dim>192</dim>
					<dim>12</dim>
					<dim>12</dim>
				</port>
			</input>
			<output>
				<port id="3">
					<dim>1</dim>
					<dim>192</dim>
					<dim>12</dim>
					<dim>12</dim>
				</port>
			</output>
			<blobs>
				<weights offset="1953792" size="768"/>
				<biases offset="1954560" size="768"/>
			</blobs>
		</layer>
		<layer id="59" name="1086" precision="FP32" type="ReLU">
			<input>
				<port id="0">
					<dim>1</dim>
					<dim>192</dim>
					<dim>12</dim>
					<dim>12</dim>
				</port>
			</input>
			<output>
				<port id="1">
					<dim>1</dim>
					<dim>192</dim>
					<dim>12</dim>
					<dim>12</dim>
				</port>
			</output>
		</layer>
		<layer id="60" name="1087" precision="FP32" type="Convolution">
			<data dilations="1,1" group="1" kernel="1,1" output="128" pads_begin="0,0" pads_end="0,0" strides="1,1"/>
			<input>
				<port id="0">
					<dim>1</dim>
					<dim>192</dim>
					<dim>12</dim>
					<dim>12</dim>
				</port>
			</input>
			<output>
				<port id="3">
					<dim>1</dim>
					<dim>128</dim>
					<dim>12</dim>
					<dim>12</dim>
				</port>
			</output>
			<blobs>
				<weights offset="1955328" size="98304"/>
				<biases offset="2053632" size="512"/>
			</blobs>
		</layer>
		<layer id="61" name="1089" precision="FP32" type="ReLU">
			<input>
				<port id="0">
					<dim>1</dim>
					<dim>128</dim>
					<dim>12</dim>
					<dim>12</dim>
				</port>
			</input>
			<output>
				<port id="1">
					<dim>1</dim>
					<dim>128</dim>
					<dim>12</dim>
					<dim>12</dim>
				</port>
			</output>
		</layer>
		<layer id="62" name="1090" precision="FP32" type="Convolution">
			<data dilations="1,1" group="1" kernel="3,3" output="32" pads_begin="1,1" pads_end="1,1" strides="1,1"/>
			<input>
				<port id="0">
					<dim>1</dim>
					<dim>128</dim>
					<dim>12</dim>
					<dim>12</dim>
				</port>
			</input>
			<output>
				<port id="2">
					<dim>1</dim>
					<dim>32</dim>
					<dim>12</dim>
					<dim>12</dim>
				</port>
			</output>
			<blobs>
				<weights offset="2054144" size="147456"/>
			</blobs>
		</layer>
		<layer id="63" name="1091" precision="FP32" type="Concat">
			<data axis="1"/>
			<input>
				<port id="0">
					<dim>1</dim>
					<dim>128</dim>
					<dim>12</dim>
					<dim>12</dim>
				</port>
				<port id="1">
					<dim>1</dim>
					<dim>32</dim>
					<dim>12</dim>
					<dim>12</dim>
				</port>
				<port id="2">
					<dim>1</dim>
					<dim>32</dim>
					<dim>12</dim>
					<dim>12</dim>
				</port>
				<port id="3">
					<dim>1</dim>
					<dim>32</dim>
					<dim>12</dim>
					<dim>12</dim>
				</port>
			</input>
			<output>
				<port id="4">
					<dim>1</dim>
					<dim>224</dim>
					<dim>12</dim>
					<dim>12</dim>
				</port>
			</output>
		</layer>
		<layer id="64" name="Mul1_19648/Fused_Mul_/FusedScaleShift_" precision="FP32" type="ScaleShift">
			<input>
				<port id="0">
					<dim>1</dim>
					<dim>224</dim>
					<dim>12</dim>
					<dim>12</dim>
				</port>
			</input>
			<output>
				<port id="3">
					<dim>1</dim>
					<dim>224</dim>
					<dim>12</dim>
					<dim>12</dim>
				</port>
			</output>
			<blobs>
				<weights offset="2201600" size="896"/>
				<biases offset="2202496" size="896"/>
			</blobs>
		</layer>
		<layer id="65" name="1093" precision="FP32" type="ReLU">
			<input>
				<port id="0">
					<dim>1</dim>
					<dim>224</dim>
					<dim>12</dim>
					<dim>12</dim>
				</port>
			</input>
			<output>
				<port id="1">
					<dim>1</dim>
					<dim>224</dim>
					<dim>12</dim>
					<dim>12</dim>
				</port>
			</output>
		</layer>
		<layer id="66" name="1094" precision="FP32" type="Convolution">
			<data dilations="1,1" group="1" kernel="1,1" output="128" pads_begin="0,0" pads_end="0,0" strides="1,1"/>
			<input>
				<port id="0">
					<dim>1</dim>
					<dim>224</dim>
					<dim>12</dim>
					<dim>12</dim>
				</port>
			</input>
			<output>
				<port id="3">
					<dim>1</dim>
					<dim>128</dim>
					<dim>12</dim>
					<dim>12</dim>
				</port>
			</output>
			<blobs>
				<weights offset="2203392" size="114688"/>
				<biases offset="2318080" size="512"/>
			</blobs>
		</layer>
		<layer id="67" name="1096" precision="FP32" type="ReLU">
			<input>
				<port id="0">
					<dim>1</dim>
					<dim>128</dim>
					<dim>12</dim>
					<dim>12</dim>
				</port>
			</input>
			<output>
				<port id="1">
					<dim>1</dim>
					<dim>128</dim>
					<dim>12</dim>
					<dim>12</dim>
				</port>
			</output>
		</layer>
		<layer id="68" name="1097" precision="FP32" type="Convolution">
			<data dilations="1,1" group="1" kernel="3,3" output="32" pads_begin="1,1" pads_end="1,1" strides="1,1"/>
			<input>
				<port id="0">
					<dim>1</dim>
					<dim>128</dim>
					<dim>12</dim>
					<dim>12</dim>
				</port>
			</input>
			<output>
				<port id="2">
					<dim>1</dim>
					<dim>32</dim>
					<dim>12</dim>
					<dim>12</dim>
				</port>
			</output>
			<blobs>
				<weights offset="2318592" size="147456"/>
			</blobs>
		</layer>
		<layer id="69" name="1098" precision="FP32" type="Concat">
			<data axis="1"/>
			<input>
				<port id="0">
					<dim>1</dim>
					<dim>128</dim>
					<dim>12</dim>
					<dim>12</dim>
				</port>
				<port id="1">
					<dim>1</dim>
					<dim>32</dim>
					<dim>12</dim>
					<dim>12</dim>
				</port>
				<port id="2">
					<dim>1</dim>
					<dim>32</dim>
					<dim>12</dim>
					<dim>12</dim>
				</port>
				<port id="3">
					<dim>1</dim>
					<dim>32</dim>
					<dim>12</dim>
					<dim>12</dim>
				</port>
				<port id="4">
					<dim>1</dim>
					<dim>32</dim>
					<dim>12</dim>
					<dim>12</dim>
				</port>
			</input>
			<output>
				<port id="5">
					<dim>1</dim>
					<dim>256</dim>
					<dim>12</dim>
					<dim>12</dim>
				</port>
			</output>
		</layer>
		<layer id="70" name="Mul1_21196/Fused_Mul_/FusedScaleShift_" precision="FP32" type="ScaleShift">
			<input>
				<port id="0">
					<dim>1</dim>
					<dim>256</dim>
					<dim>12</dim>
					<dim>12</dim>
				</port>
			</input>
			<output>
				<port id="3">
					<dim>1</dim>
					<dim>256</dim>
					<dim>12</dim>
					<dim>12</dim>
				</port>
			</output>
			<blobs>
				<weights offset="2466048" size="1024"/>
				<biases offset="2467072" size="1024"/>
			</blobs>
		</layer>
		<layer id="71" name="1100" precision="FP32" type="ReLU">
			<input>
				<port id="0">
					<dim>1</dim>
					<dim>256</dim>
					<dim>12</dim>
					<dim>12</dim>
				</port>
			</input>
			<output>
				<port id="1">
					<dim>1</dim>
					<dim>256</dim>
					<dim>12</dim>
					<dim>12</dim>
				</port>
			</output>
		</layer>
		<layer id="72" name="1101" precision="FP32" type="Convolution">
			<data dilations="1,1" group="1" kernel="1,1" output="128" pads_begin="0,0" pads_end="0,0" strides="1,1"/>
			<input>
				<port id="0">
					<dim>1</dim>
					<dim>256</dim>
					<dim>12</dim>
					<dim>12</dim>
				</port>
			</input>
			<output>
				<port id="3">
					<dim>1</dim>
					<dim>128</dim>
					<dim>12</dim>
					<dim>12</dim>
				</port>
			</output>
			<blobs>
				<weights offset="2468096" size="131072"/>
				<biases offset="2599168" size="512"/>
			</blobs>
		</layer>
		<layer id="73" name="1103" precision="FP32" type="ReLU">
			<input>
				<port id="0">
					<dim>1</dim>
					<dim>128</dim>
					<dim>12</dim>
					<dim>12</dim>
				</port>
			</input>
			<output>
				<port id="1">
					<dim>1</dim>
					<dim>128</dim>
					<dim>12</dim>
					<dim>12</dim>
				</port>
			</output>
		</layer>
		<layer id="74" name="1104" precision="FP32" type="Convolution">
			<data dilations="1,1" group="1" kernel="3,3" output="32" pads_begin="1,1" pads_end="1,1" strides="1,1"/>
			<input>
				<port id="0">
					<dim>1</dim>
					<dim>128</dim>
					<dim>12</dim>
					<dim>12</dim>
				</port>
			</input>
			<output>
				<port id="2">
					<dim>1</dim>
					<dim>32</dim>
					<dim>12</dim>
					<dim>12</dim>
				</port>
			</output>
			<blobs>
				<weights offset="2599680" size="147456"/>
			</blobs>
		</layer>
		<layer id="75" name="1105" precision="FP32" type="Concat">
			<data axis="1"/>
			<input>
				<port id="0">
					<dim>1</dim>
					<dim>128</dim>
					<dim>12</dim>
					<dim>12</dim>
				</port>
				<port id="1">
					<dim>1</dim>
					<dim>32</dim>
					<dim>12</dim>
					<dim>12</dim>
				</port>
				<port id="2">
					<dim>1</dim>
					<dim>32</dim>
					<dim>12</dim>
					<dim>12</dim>
				</port>
				<port id="3">
					<dim>1</dim>
					<dim>32</dim>
					<dim>12</dim>
					<dim>12</dim>
				</port>
				<port id="4">
					<dim>1</dim>
					<dim>32</dim>
					<dim>12</dim>
					<dim>12</dim>
				</port>
				<port id="5">
					<dim>1</dim>
					<dim>32</dim>
					<dim>12</dim>
					<dim>12</dim>
				</port>
			</input>
			<output>
				<port id="6">
					<dim>1</dim>
					<dim>288</dim>
					<dim>12</dim>
					<dim>12</dim>
				</port>
			</output>
		</layer>
		<layer id="76" name="Mul1_20644/Fused_Mul_/FusedScaleShift_" precision="FP32" type="ScaleShift">
			<input>
				<port id="0">
					<dim>1</dim>
					<dim>288</dim>
					<dim>12</dim>
					<dim>12</dim>
				</port>
			</input>
			<output>
				<port id="3">
					<dim>1</dim>
					<dim>288</dim>
					<dim>12</dim>
					<dim>12</dim>
				</port>
			</output>
			<blobs>
				<weights offset="2747136" size="1152"/>
				<biases offset="2748288" size="1152"/>
			</blobs>
		</layer>
		<layer id="77" name="1107" precision="FP32" type="ReLU">
			<input>
				<port id="0">
					<dim>1</dim>
					<dim>288</dim>
					<dim>12</dim>
					<dim>12</dim>
				</port>
			</input>
			<output>
				<port id="1">
					<dim>1</dim>
					<dim>288</dim>
					<dim>12</dim>
					<dim>12</dim>
				</port>
			</output>
		</layer>
		<layer id="78" name="1108" precision="FP32" type="Convolution">
			<data dilations="1,1" group="1" kernel="1,1" output="128" pads_begin="0,0" pads_end="0,0" strides="1,1"/>
			<input>
				<port id="0">
					<dim>1</dim>
					<dim>288</dim>
					<dim>12</dim>
					<dim>12</dim>
				</port>
			</input>
			<output>
				<port id="3">
					<dim>1</dim>
					<dim>128</dim>
					<dim>12</dim>
					<dim>12</dim>
				</port>
			</output>
			<blobs>
				<weights offset="2749440" size="147456"/>
				<biases offset="2896896" size="512"/>
			</blobs>
		</layer>
		<layer id="79" name="1110" precision="FP32" type="ReLU">
			<input>
				<port id="0">
					<dim>1</dim>
					<dim>128</dim>
					<dim>12</dim>
					<dim>12</dim>
				</port>
			</input>
			<output>
				<port id="1">
					<dim>1</dim>
					<dim>128</dim>
					<dim>12</dim>
					<dim>12</dim>
				</port>
			</output>
		</layer>
		<layer id="80" name="1111" precision="FP32" type="Convolution">
			<data dilations="1,1" group="1" kernel="3,3" output="32" pads_begin="1,1" pads_end="1,1" strides="1,1"/>
			<input>
				<port id="0">
					<dim>1</dim>
					<dim>128</dim>
					<dim>12</dim>
					<dim>12</dim>
				</port>
			</input>
			<output>
				<port id="2">
					<dim>1</dim>
					<dim>32</dim>
					<dim>12</dim>
					<dim>12</dim>
				</port>
			</output>
			<blobs>
				<weights offset="2897408" size="147456"/>
			</blobs>
		</layer>
		<layer id="81" name="1112" precision="FP32" type="Concat">
			<data axis="1"/>
			<input>
				<port id="0">
					<dim>1</dim>
					<dim>128</dim>
					<dim>12</dim>
					<dim>12</dim>
				</port>
				<port id="1">
					<dim>1</dim>
					<dim>32</dim>
					<dim>12</dim>
					<dim>12</dim>
				</port>
				<port id="2">
					<dim>1</dim>
					<dim>32</dim>
					<dim>12</dim>
					<dim>12</dim>
				</port>
				<port id="3">
					<dim>1</dim>
					<dim>32</dim>
					<dim>12</dim>
					<dim>12</dim>
				</port>
				<port id="4">
					<dim>1</dim>
					<dim>32</dim>
					<dim>12</dim>
					<dim>12</dim>
				</port>
				<port id="5">
					<dim>1</dim>
					<dim>32</dim>
					<dim>12</dim>
					<dim>12</dim>
				</port>
				<port id="6">
					<dim>1</dim>
					<dim>32</dim>
					<dim>12</dim>
					<dim>12</dim>
				</port>
			</input>
			<output>
				<port id="7">
					<dim>1</dim>
					<dim>320</dim>
					<dim>12</dim>
					<dim>12</dim>
				</port>
			</output>
		</layer>
		<layer id="82" name="Mul1_19480/Fused_Mul_/FusedScaleShift_" precision="FP32" type="ScaleShift">
			<input>
				<port id="0">
					<dim>1</dim>
					<dim>320</dim>
					<dim>12</dim>
					<dim>12</dim>
				</port>
			</input>
			<output>
				<port id="3">
					<dim>1</dim>
					<dim>320</dim>
					<dim>12</dim>
					<dim>12</dim>
				</port>
			</output>
			<blobs>
				<weights offset="3044864" size="1280"/>
				<biases offset="3046144" size="1280"/>
			</blobs>
		</layer>
		<layer id="83" name="1114" precision="FP32" type="ReLU">
			<input>
				<port id="0">
					<dim>1</dim>
					<dim>320</dim>
					<dim>12</dim>
					<dim>12</dim>
				</port>
			</input>
			<output>
				<port id="1">
					<dim>1</dim>
					<dim>320</dim>
					<dim>12</dim>
					<dim>12</dim>
				</port>
			</output>
		</layer>
		<layer id="84" name="1115" precision="FP32" type="Convolution">
			<data dilations="1,1" group="1" kernel="1,1" output="128" pads_begin="0,0" pads_end="0,0" strides="1,1"/>
			<input>
				<port id="0">
					<dim>1</dim>
					<dim>320</dim>
					<dim>12</dim>
					<dim>12</dim>
				</port>
			</input>
			<output>
				<port id="3">
					<dim>1</dim>
					<dim>128</dim>
					<dim>12</dim>
					<dim>12</dim>
				</port>
			</output>
			<blobs>
				<weights offset="3047424" size="163840"/>
				<biases offset="3211264" size="512"/>
			</blobs>
		</layer>
		<layer id="85" name="1117" precision="FP32" type="ReLU">
			<input>
				<port id="0">
					<dim>1</dim>
					<dim>128</dim>
					<dim>12</dim>
					<dim>12</dim>
				</port>
			</input>
			<output>
				<port id="1">
					<dim>1</dim>
					<dim>128</dim>
					<dim>12</dim>
					<dim>12</dim>
				</port>
			</output>
		</layer>
		<layer id="86" name="1118" precision="FP32" type="Convolution">
			<data dilations="1,1" group="1" kernel="3,3" output="32" pads_begin="1,1" pads_end="1,1" strides="1,1"/>
			<input>
				<port id="0">
					<dim>1</dim>
					<dim>128</dim>
					<dim>12</dim>
					<dim>12</dim>
				</port>
			</input>
			<output>
				<port id="2">
					<dim>1</dim>
					<dim>32</dim>
					<dim>12</dim>
					<dim>12</dim>
				</port>
			</output>
			<blobs>
				<weights offset="3211776" size="147456"/>
			</blobs>
		</layer>
		<layer id="87" name="1119" precision="FP32" type="Concat">
			<data axis="1"/>
			<input>
				<port id="0">
					<dim>1</dim>
					<dim>128</dim>
					<dim>12</dim>
					<dim>12</dim>
				</port>
				<port id="1">
					<dim>1</dim>
					<dim>32</dim>
					<dim>12</dim>
					<dim>12</dim>
				</port>
				<port id="2">
					<dim>1</dim>
					<dim>32</dim>
					<dim>12</dim>
					<dim>12</dim>
				</port>
				<port id="3">
					<dim>1</dim>
					<dim>32</dim>
					<dim>12</dim>
					<dim>12</dim>
				</port>
				<port id="4">
					<dim>1</dim>
					<dim>32</dim>
					<dim>12</dim>
					<dim>12</dim>
				</port>
				<port id="5">
					<dim>1</dim>
					<dim>32</dim>
					<dim>12</dim>
					<dim>12</dim>
				</port>
				<port id="6">
					<dim>1</dim>
					<dim>32</dim>
					<dim>12</dim>
					<dim>12</dim>
				</port>
				<port id="7">
					<dim>1</dim>
					<dim>32</dim>
					<dim>12</dim>
					<dim>12</dim>
				</port>
			</input>
			<output>
				<port id="8">
					<dim>1</dim>
					<dim>352</dim>
					<dim>12</dim>
					<dim>12</dim>
				</port>
			</output>
		</layer>
		<layer id="88" name="Mul1_20392/Fused_Mul_/FusedScaleShift_" precision="FP32" type="ScaleShift">
			<input>
				<port id="0">
					<dim>1</dim>
					<dim>352</dim>
					<dim>12</dim>
					<dim>12</dim>
				</port>
			</input>
			<output>
				<port id="3">
					<dim>1</dim>
					<dim>352</dim>
					<dim>12</dim>
					<dim>12</dim>
				</port>
			</output>
			<blobs>
				<weights offset="3359232" size="1408"/>
				<biases offset="3360640" size="1408"/>
			</blobs>
		</layer>
		<layer id="89" name="1121" precision="FP32" type="ReLU">
			<input>
				<port id="0">
					<dim>1</dim>
					<dim>352</dim>
					<dim>12</dim>
					<dim>12</dim>
				</port>
			</input>
			<output>
				<port id="1">
					<dim>1</dim>
					<dim>352</dim>
					<dim>12</dim>
					<dim>12</dim>
				</port>
			</output>
		</layer>
		<layer id="90" name="1122" precision="FP32" type="Convolution">
			<data dilations="1,1" group="1" kernel="1,1" output="128" pads_begin="0,0" pads_end="0,0" strides="1,1"/>
			<input>
				<port id="0">
					<dim>1</dim>
					<dim>352</dim>
					<dim>12</dim>
					<dim>12</dim>
				</port>
			</input>
			<output>
				<port id="3">
					<dim>1</dim>
					<dim>128</dim>
					<dim>12</dim>
					<dim>12</dim>
				</port>
			</output>
			<blobs>
				<weights offset="3362048" size="180224"/>
				<biases offset="3542272" size="512"/>
			</blobs>
		</layer>
		<layer id="91" name="1124" precision="FP32" type="ReLU">
			<input>
				<port id="0">
					<dim>1</dim>
					<dim>128</dim>
					<dim>12</dim>
					<dim>12</dim>
				</port>
			</input>
			<output>
				<port id="1">
					<dim>1</dim>
					<dim>128</dim>
					<dim>12</dim>
					<dim>12</dim>
				</port>
			</output>
		</layer>
		<layer id="92" name="1125" precision="FP32" type="Convolution">
			<data dilations="1,1" group="1" kernel="3,3" output="32" pads_begin="1,1" pads_end="1,1" strides="1,1"/>
			<input>
				<port id="0">
					<dim>1</dim>
					<dim>128</dim>
					<dim>12</dim>
					<dim>12</dim>
				</port>
			</input>
			<output>
				<port id="2">
					<dim>1</dim>
					<dim>32</dim>
					<dim>12</dim>
					<dim>12</dim>
				</port>
			</output>
			<blobs>
				<weights offset="3542784" size="147456"/>
			</blobs>
		</layer>
		<layer id="93" name="1126" precision="FP32" type="Concat">
			<data axis="1"/>
			<input>
				<port id="0">
					<dim>1</dim>
					<dim>128</dim>
					<dim>12</dim>
					<dim>12</dim>
				</port>
				<port id="1">
					<dim>1</dim>
					<dim>32</dim>
					<dim>12</dim>
					<dim>12</dim>
				</port>
				<port id="2">
					<dim>1</dim>
					<dim>32</dim>
					<dim>12</dim>
					<dim>12</dim>
				</port>
				<port id="3">
					<dim>1</dim>
					<dim>32</dim>
					<dim>12</dim>
					<dim>12</dim>
				</port>
				<port id="4">
					<dim>1</dim>
					<dim>32</dim>
					<dim>12</dim>
					<dim>12</dim>
				</port>
				<port id="5">
					<dim>1</dim>
					<dim>32</dim>
					<dim>12</dim>
					<dim>12</dim>
				</port>
				<port id="6">
					<dim>1</dim>
					<dim>32</dim>
					<dim>12</dim>
					<dim>12</dim>
				</port>
				<port id="7">
					<dim>1</dim>
					<dim>32</dim>
					<dim>12</dim>
					<dim>12</dim>
				</port>
				<port id="8">
					<dim>1</dim>
					<dim>32</dim>
					<dim>12</dim>
					<dim>12</dim>
				</port>
			</input>
			<output>
				<port id="9">
					<dim>1</dim>
					<dim>384</dim>
					<dim>12</dim>
					<dim>12</dim>
				</port>
			</output>
		</layer>
		<layer id="94" name="Mul1_19924/Fused_Mul_/FusedScaleShift_" precision="FP32" type="ScaleShift">
			<input>
				<port id="0">
					<dim>1</dim>
					<dim>384</dim>
					<dim>12</dim>
					<dim>12</dim>
				</port>
			</input>
			<output>
				<port id="3">
					<dim>1</dim>
					<dim>384</dim>
					<dim>12</dim>
					<dim>12</dim>
				</port>
			</output>
			<blobs>
				<weights offset="3690240" size="1536"/>
				<biases offset="3691776" size="1536"/>
			</blobs>
		</layer>
		<layer id="95" name="1128" precision="FP32" type="ReLU">
			<input>
				<port id="0">
					<dim>1</dim>
					<dim>384</dim>
					<dim>12</dim>
					<dim>12</dim>
				</port>
			</input>
			<output>
				<port id="1">
					<dim>1</dim>
					<dim>384</dim>
					<dim>12</dim>
					<dim>12</dim>
				</port>
			</output>
		</layer>
		<layer id="96" name="1129" precision="FP32" type="Convolution">
			<data dilations="1,1" group="1" kernel="1,1" output="128" pads_begin="0,0" pads_end="0,0" strides="1,1"/>
			<input>
				<port id="0">
					<dim>1</dim>
					<dim>384</dim>
					<dim>12</dim>
					<dim>12</dim>
				</port>
			</input>
			<output>
				<port id="3">
					<dim>1</dim>
					<dim>128</dim>
					<dim>12</dim>
					<dim>12</dim>
				</port>
			</output>
			<blobs>
				<weights offset="3693312" size="196608"/>
				<biases offset="3889920" size="512"/>
			</blobs>
		</layer>
		<layer id="97" name="1131" precision="FP32" type="ReLU">
			<input>
				<port id="0">
					<dim>1</dim>
					<dim>128</dim>
					<dim>12</dim>
					<dim>12</dim>
				</port>
			</input>
			<output>
				<port id="1">
					<dim>1</dim>
					<dim>128</dim>
					<dim>12</dim>
					<dim>12</dim>
				</port>
			</output>
		</layer>
		<layer id="98" name="1132" precision="FP32" type="Convolution">
			<data dilations="1,1" group="1" kernel="3,3" output="32" pads_begin="1,1" pads_end="1,1" strides="1,1"/>
			<input>
				<port id="0">
					<dim>1</dim>
					<dim>128</dim>
					<dim>12</dim>
					<dim>12</dim>
				</port>
			</input>
			<output>
				<port id="2">
					<dim>1</dim>
					<dim>32</dim>
					<dim>12</dim>
					<dim>12</dim>
				</port>
			</output>
			<blobs>
				<weights offset="3890432" size="147456"/>
			</blobs>
		</layer>
		<layer id="99" name="1133" precision="FP32" type="Concat">
			<data axis="1"/>
			<input>
				<port id="0">
					<dim>1</dim>
					<dim>128</dim>
					<dim>12</dim>
					<dim>12</dim>
				</port>
				<port id="1">
					<dim>1</dim>
					<dim>32</dim>
					<dim>12</dim>
					<dim>12</dim>
				</port>
				<port id="2">
					<dim>1</dim>
					<dim>32</dim>
					<dim>12</dim>
					<dim>12</dim>
				</port>
				<port id="3">
					<dim>1</dim>
					<dim>32</dim>
					<dim>12</dim>
					<dim>12</dim>
				</port>
				<port id="4">
					<dim>1</dim>
					<dim>32</dim>
					<dim>12</dim>
					<dim>12</dim>
				</port>
				<port id="5">
					<dim>1</dim>
					<dim>32</dim>
					<dim>12</dim>
					<dim>12</dim>
				</port>
				<port id="6">
					<dim>1</dim>
					<dim>32</dim>
					<dim>12</dim>
					<dim>12</dim>
				</port>
				<port id="7">
					<dim>1</dim>
					<dim>32</dim>
					<dim>12</dim>
					<dim>12</dim>
				</port>
				<port id="8">
					<dim>1</dim>
					<dim>32</dim>
					<dim>12</dim>
					<dim>12</dim>
				</port>
				<port id="9">
					<dim>1</dim>
					<dim>32</dim>
					<dim>12</dim>
					<dim>12</dim>
				</port>
			</input>
			<output>
				<port id="10">
					<dim>1</dim>
					<dim>416</dim>
					<dim>12</dim>
					<dim>12</dim>
				</port>
			</output>
		</layer>
		<layer id="100" name="Mul1_19360/Fused_Mul_/FusedScaleShift_" precision="FP32" type="ScaleShift">
			<input>
				<port id="0">
					<dim>1</dim>
					<dim>416</dim>
					<dim>12</dim>
					<dim>12</dim>
				</port>
			</input>
			<output>
				<port id="3">
					<dim>1</dim>
					<dim>416</dim>
					<dim>12</dim>
					<dim>12</dim>
				</port>
			</output>
			<blobs>
				<weights offset="4037888" size="1664"/>
				<biases offset="4039552" size="1664"/>
			</blobs>
		</layer>
		<layer id="101" name="1135" precision="FP32" type="ReLU">
			<input>
				<port id="0">
					<dim>1</dim>
					<dim>416</dim>
					<dim>12</dim>
					<dim>12</dim>
				</port>
			</input>
			<output>
				<port id="1">
					<dim>1</dim>
					<dim>416</dim>
					<dim>12</dim>
					<dim>12</dim>
				</port>
			</output>
		</layer>
		<layer id="102" name="1136" precision="FP32" type="Convolution">
			<data dilations="1,1" group="1" kernel="1,1" output="128" pads_begin="0,0" pads_end="0,0" strides="1,1"/>
			<input>
				<port id="0">
					<dim>1</dim>
					<dim>416</dim>
					<dim>12</dim>
					<dim>12</dim>
				</port>
			</input>
			<output>
				<port id="3">
					<dim>1</dim>
					<dim>128</dim>
					<dim>12</dim>
					<dim>12</dim>
				</port>
			</output>
			<blobs>
				<weights offset="4041216" size="212992"/>
				<biases offset="4254208" size="512"/>
			</blobs>
		</layer>
		<layer id="103" name="1138" precision="FP32" type="ReLU">
			<input>
				<port id="0">
					<dim>1</dim>
					<dim>128</dim>
					<dim>12</dim>
					<dim>12</dim>
				</port>
			</input>
			<output>
				<port id="1">
					<dim>1</dim>
					<dim>128</dim>
					<dim>12</dim>
					<dim>12</dim>
				</port>
			</output>
		</layer>
		<layer id="104" name="1139" precision="FP32" type="Convolution">
			<data dilations="1,1" group="1" kernel="3,3" output="32" pads_begin="1,1" pads_end="1,1" strides="1,1"/>
			<input>
				<port id="0">
					<dim>1</dim>
					<dim>128</dim>
					<dim>12</dim>
					<dim>12</dim>
				</port>
			</input>
			<output>
				<port id="2">
					<dim>1</dim>
					<dim>32</dim>
					<dim>12</dim>
					<dim>12</dim>
				</port>
			</output>
			<blobs>
				<weights offset="4254720" size="147456"/>
			</blobs>
		</layer>
		<layer id="105" name="1140" precision="FP32" type="Concat">
			<data axis="1"/>
			<input>
				<port id="0">
					<dim>1</dim>
					<dim>128</dim>
					<dim>12</dim>
					<dim>12</dim>
				</port>
				<port id="1">
					<dim>1</dim>
					<dim>32</dim>
					<dim>12</dim>
					<dim>12</dim>
				</port>
				<port id="2">
					<dim>1</dim>
					<dim>32</dim>
					<dim>12</dim>
					<dim>12</dim>
				</port>
				<port id="3">
					<dim>1</dim>
					<dim>32</dim>
					<dim>12</dim>
					<dim>12</dim>
				</port>
				<port id="4">
					<dim>1</dim>
					<dim>32</dim>
					<dim>12</dim>
					<dim>12</dim>
				</port>
				<port id="5">
					<dim>1</dim>
					<dim>32</dim>
					<dim>12</dim>
					<dim>12</dim>
				</port>
				<port id="6">
					<dim>1</dim>
					<dim>32</dim>
					<dim>12</dim>
					<dim>12</dim>
				</port>
				<port id="7">
					<dim>1</dim>
					<dim>32</dim>
					<dim>12</dim>
					<dim>12</dim>
				</port>
				<port id="8">
					<dim>1</dim>
					<dim>32</dim>
					<dim>12</dim>
					<dim>12</dim>
				</port>
				<port id="9">
					<dim>1</dim>
					<dim>32</dim>
					<dim>12</dim>
					<dim>12</dim>
				</port>
				<port id="10">
					<dim>1</dim>
					<dim>32</dim>
					<dim>12</dim>
					<dim>12</dim>
				</port>
			</input>
			<output>
				<port id="11">
					<dim>1</dim>
					<dim>448</dim>
					<dim>12</dim>
					<dim>12</dim>
				</port>
			</output>
		</layer>
		<layer id="106" name="Mul1_19444/Fused_Mul_/FusedScaleShift_" precision="FP32" type="ScaleShift">
			<input>
				<port id="0">
					<dim>1</dim>
					<dim>448</dim>
					<dim>12</dim>
					<dim>12</dim>
				</port>
			</input>
			<output>
				<port id="3">
					<dim>1</dim>
					<dim>448</dim>
					<dim>12</dim>
					<dim>12</dim>
				</port>
			</output>
			<blobs>
				<weights offset="4402176" size="1792"/>
				<biases offset="4403968" size="1792"/>
			</blobs>
		</layer>
		<layer id="107" name="1142" precision="FP32" type="ReLU">
			<input>
				<port id="0">
					<dim>1</dim>
					<dim>448</dim>
					<dim>12</dim>
					<dim>12</dim>
				</port>
			</input>
			<output>
				<port id="1">
					<dim>1</dim>
					<dim>448</dim>
					<dim>12</dim>
					<dim>12</dim>
				</port>
			</output>
		</layer>
		<layer id="108" name="1143" precision="FP32" type="Convolution">
			<data dilations="1,1" group="1" kernel="1,1" output="128" pads_begin="0,0" pads_end="0,0" strides="1,1"/>
			<input>
				<port id="0">
					<dim>1</dim>
					<dim>448</dim>
					<dim>12</dim>
					<dim>12</dim>
				</port>
			</input>
			<output>
				<port id="3">
					<dim>1</dim>
					<dim>128</dim>
					<dim>12</dim>
					<dim>12</dim>
				</port>
			</output>
			<blobs>
				<weights offset="4405760" size="229376"/>
				<biases offset="4635136" size="512"/>
			</blobs>
		</layer>
		<layer id="109" name="1145" precision="FP32" type="ReLU">
			<input>
				<port id="0">
					<dim>1</dim>
					<dim>128</dim>
					<dim>12</dim>
					<dim>12</dim>
				</port>
			</input>
			<output>
				<port id="1">
					<dim>1</dim>
					<dim>128</dim>
					<dim>12</dim>
					<dim>12</dim>
				</port>
			</output>
		</layer>
		<layer id="110" name="1146" precision="FP32" type="Convolution">
			<data dilations="1,1" group="1" kernel="3,3" output="32" pads_begin="1,1" pads_end="1,1" strides="1,1"/>
			<input>
				<port id="0">
					<dim>1</dim>
					<dim>128</dim>
					<dim>12</dim>
					<dim>12</dim>
				</port>
			</input>
			<output>
				<port id="2">
					<dim>1</dim>
					<dim>32</dim>
					<dim>12</dim>
					<dim>12</dim>
				</port>
			</output>
			<blobs>
				<weights offset="4635648" size="147456"/>
			</blobs>
		</layer>
		<layer id="111" name="1147" precision="FP32" type="Concat">
			<data axis="1"/>
			<input>
				<port id="0">
					<dim>1</dim>
					<dim>128</dim>
					<dim>12</dim>
					<dim>12</dim>
				</port>
				<port id="1">
					<dim>1</dim>
					<dim>32</dim>
					<dim>12</dim>
					<dim>12</dim>
				</port>
				<port id="2">
					<dim>1</dim>
					<dim>32</dim>
					<dim>12</dim>
					<dim>12</dim>
				</port>
				<port id="3">
					<dim>1</dim>
					<dim>32</dim>
					<dim>12</dim>
					<dim>12</dim>
				</port>
				<port id="4">
					<dim>1</dim>
					<dim>32</dim>
					<dim>12</dim>
					<dim>12</dim>
				</port>
				<port id="5">
					<dim>1</dim>
					<dim>32</dim>
					<dim>12</dim>
					<dim>12</dim>
				</port>
				<port id="6">
					<dim>1</dim>
					<dim>32</dim>
					<dim>12</dim>
					<dim>12</dim>
				</port>
				<port id="7">
					<dim>1</dim>
					<dim>32</dim>
					<dim>12</dim>
					<dim>12</dim>
				</port>
				<port id="8">
					<dim>1</dim>
					<dim>32</dim>
					<dim>12</dim>
					<dim>12</dim>
				</port>
				<port id="9">
					<dim>1</dim>
					<dim>32</dim>
					<dim>12</dim>
					<dim>12</dim>
				</port>
				<port id="10">
					<dim>1</dim>
					<dim>32</dim>
					<dim>12</dim>
					<dim>12</dim>
				</port>
				<port id="11">
					<dim>1</dim>
					<dim>32</dim>
					<dim>12</dim>
					<dim>12</dim>
				</port>
			</input>
			<output>
				<port id="12">
					<dim>1</dim>
					<dim>480</dim>
					<dim>12</dim>
					<dim>12</dim>
				</port>
			</output>
		</layer>
		<layer id="112" name="Mul1_19828/Fused_Mul_/FusedScaleShift_" precision="FP32" type="ScaleShift">
			<input>
				<port id="0">
					<dim>1</dim>
					<dim>480</dim>
					<dim>12</dim>
					<dim>12</dim>
				</port>
			</input>
			<output>
				<port id="3">
					<dim>1</dim>
					<dim>480</dim>
					<dim>12</dim>
					<dim>12</dim>
				</port>
			</output>
			<blobs>
				<weights offset="4783104" size="1920"/>
				<biases offset="4785024" size="1920"/>
			</blobs>
		</layer>
		<layer id="113" name="1149" precision="FP32" type="ReLU">
			<input>
				<port id="0">
					<dim>1</dim>
					<dim>480</dim>
					<dim>12</dim>
					<dim>12</dim>
				</port>
			</input>
			<output>
				<port id="1">
					<dim>1</dim>
					<dim>480</dim>
					<dim>12</dim>
					<dim>12</dim>
				</port>
			</output>
		</layer>
		<layer id="114" name="1150" precision="FP32" type="Convolution">
			<data dilations="1,1" group="1" kernel="1,1" output="128" pads_begin="0,0" pads_end="0,0" strides="1,1"/>
			<input>
				<port id="0">
					<dim>1</dim>
					<dim>480</dim>
					<dim>12</dim>
					<dim>12</dim>
				</port>
			</input>
			<output>
				<port id="3">
					<dim>1</dim>
					<dim>128</dim>
					<dim>12</dim>
					<dim>12</dim>
				</port>
			</output>
			<blobs>
				<weights offset="4786944" size="245760"/>
				<biases offset="5032704" size="512"/>
			</blobs>
		</layer>
		<layer id="115" name="1152" precision="FP32" type="ReLU">
			<input>
				<port id="0">
					<dim>1</dim>
					<dim>128</dim>
					<dim>12</dim>
					<dim>12</dim>
				</port>
			</input>
			<output>
				<port id="1">
					<dim>1</dim>
					<dim>128</dim>
					<dim>12</dim>
					<dim>12</dim>
				</port>
			</output>
		</layer>
		<layer id="116" name="1153" precision="FP32" type="Convolution">
			<data dilations="1,1" group="1" kernel="3,3" output="32" pads_begin="1,1" pads_end="1,1" strides="1,1"/>
			<input>
				<port id="0">
					<dim>1</dim>
					<dim>128</dim>
					<dim>12</dim>
					<dim>12</dim>
				</port>
			</input>
			<output>
				<port id="2">
					<dim>1</dim>
					<dim>32</dim>
					<dim>12</dim>
					<dim>12</dim>
				</port>
			</output>
			<blobs>
				<weights offset="5033216" size="147456"/>
			</blobs>
		</layer>
		<layer id="117" name="1154" precision="FP32" type="Concat">
			<data axis="1"/>
			<input>
				<port id="0">
					<dim>1</dim>
					<dim>128</dim>
					<dim>12</dim>
					<dim>12</dim>
				</port>
				<port id="1">
					<dim>1</dim>
					<dim>32</dim>
					<dim>12</dim>
					<dim>12</dim>
				</port>
				<port id="2">
					<dim>1</dim>
					<dim>32</dim>
					<dim>12</dim>
					<dim>12</dim>
				</port>
				<port id="3">
					<dim>1</dim>
					<dim>32</dim>
					<dim>12</dim>
					<dim>12</dim>
				</port>
				<port id="4">
					<dim>1</dim>
					<dim>32</dim>
					<dim>12</dim>
					<dim>12</dim>
				</port>
				<port id="5">
					<dim>1</dim>
					<dim>32</dim>
					<dim>12</dim>
					<dim>12</dim>
				</port>
				<port id="6">
					<dim>1</dim>
					<dim>32</dim>
					<dim>12</dim>
					<dim>12</dim>
				</port>
				<port id="7">
					<dim>1</dim>
					<dim>32</dim>
					<dim>12</dim>
					<dim>12</dim>
				</port>
				<port id="8">
					<dim>1</dim>
					<dim>32</dim>
					<dim>12</dim>
					<dim>12</dim>
				</port>
				<port id="9">
					<dim>1</dim>
					<dim>32</dim>
					<dim>12</dim>
					<dim>12</dim>
				</port>
				<port id="10">
					<dim>1</dim>
					<dim>32</dim>
					<dim>12</dim>
					<dim>12</dim>
				</port>
				<port id="11">
					<dim>1</dim>
					<dim>32</dim>
					<dim>12</dim>
					<dim>12</dim>
				</port>
				<port id="12">
					<dim>1</dim>
					<dim>32</dim>
					<dim>12</dim>
					<dim>12</dim>
				</port>
			</input>
			<output>
				<port id="13">
					<dim>1</dim>
					<dim>512</dim>
					<dim>12</dim>
					<dim>12</dim>
				</port>
			</output>
		</layer>
		<layer id="118" name="Mul1_19348/Fused_Mul_/FusedScaleShift_" precision="FP32" type="ScaleShift">
			<input>
				<port id="0">
					<dim>1</dim>
					<dim>512</dim>
					<dim>12</dim>
					<dim>12</dim>
				</port>
			</input>
			<output>
				<port id="3">
					<dim>1</dim>
					<dim>512</dim>
					<dim>12</dim>
					<dim>12</dim>
				</port>
			</output>
			<blobs>
				<weights offset="5180672" size="2048"/>
				<biases offset="5182720" size="2048"/>
			</blobs>
		</layer>
		<layer id="119" name="1156" precision="FP32" type="ReLU">
			<input>
				<port id="0">
					<dim>1</dim>
					<dim>512</dim>
					<dim>12</dim>
					<dim>12</dim>
				</port>
			</input>
			<output>
				<port id="1">
					<dim>1</dim>
					<dim>512</dim>
					<dim>12</dim>
					<dim>12</dim>
				</port>
			</output>
		</layer>
		<layer id="120" name="1157" precision="FP32" type="Convolution">
			<data dilations="1,1" group="1" kernel="1,1" output="256" pads_begin="0,0" pads_end="0,0" strides="1,1"/>
			<input>
				<port id="0">
					<dim>1</dim>
					<dim>512</dim>
					<dim>12</dim>
					<dim>12</dim>
				</port>
			</input>
			<output>
				<port id="2">
					<dim>1</dim>
					<dim>256</dim>
					<dim>12</dim>
					<dim>12</dim>
				</port>
			</output>
			<blobs>
				<weights offset="5184768" size="524288"/>
			</blobs>
		</layer>
		<layer id="121" name="1159" precision="FP32" type="Pooling">
			<data exclude-pad="true" kernel="2,2" pads_begin="0,0" pads_end="0,0" pool-method="avg" rounding_type="floor" strides="2,2"/>
			<input>
				<port id="0">
					<dim>1</dim>
					<dim>256</dim>
					<dim>12</dim>
					<dim>12</dim>
				</port>
			</input>
			<output>
				<port id="1">
					<dim>1</dim>
					<dim>256</dim>
					<dim>6</dim>
					<dim>6</dim>
				</port>
			</output>
		</layer>
		<layer id="122" name="1160" precision="FP32" type="Concat">
			<data axis="1"/>
			<input>
				<port id="0">
					<dim>1</dim>
					<dim>256</dim>
					<dim>6</dim>
					<dim>6</dim>
				</port>
			</input>
			<output>
				<port id="1">
					<dim>1</dim>
					<dim>256</dim>
					<dim>6</dim>
					<dim>6</dim>
				</port>
			</output>
		</layer>
		<layer id="123" name="Mul1_21148/Fused_Mul_/FusedScaleShift_" precision="FP32" type="ScaleShift">
			<input>
				<port id="0">
					<dim>1</dim>
					<dim>256</dim>
					<dim>6</dim>
					<dim>6</dim>
				</port>
			</input>
			<output>
				<port id="3">
					<dim>1</dim>
					<dim>256</dim>
					<dim>6</dim>
					<dim>6</dim>
				</port>
			</output>
			<blobs>
				<weights offset="5709056" size="1024"/>
				<biases offset="5710080" size="1024"/>
			</blobs>
		</layer>
		<layer id="124" name="1162" precision="FP32" type="ReLU">
			<input>
				<port id="0">
					<dim>1</dim>
					<dim>256</dim>
					<dim>6</dim>
					<dim>6</dim>
				</port>
			</input>
			<output>
				<port id="1">
					<dim>1</dim>
					<dim>256</dim>
					<dim>6</dim>
					<dim>6</dim>
				</port>
			</output>
		</layer>
		<layer id="125" name="1163" precision="FP32" type="Convolution">
			<data dilations="1,1" group="1" kernel="1,1" output="128" pads_begin="0,0" pads_end="0,0" strides="1,1"/>
			<input>
				<port id="0">
					<dim>1</dim>
					<dim>256</dim>
					<dim>6</dim>
					<dim>6</dim>
				</port>
			</input>
			<output>
				<port id="3">
					<dim>1</dim>
					<dim>128</dim>
					<dim>6</dim>
					<dim>6</dim>
				</port>
			</output>
			<blobs>
				<weights offset="5711104" size="131072"/>
				<biases offset="5842176" size="512"/>
			</blobs>
		</layer>
		<layer id="126" name="1165" precision="FP32" type="ReLU">
			<input>
				<port id="0">
					<dim>1</dim>
					<dim>128</dim>
					<dim>6</dim>
					<dim>6</dim>
				</port>
			</input>
			<output>
				<port id="1">
					<dim>1</dim>
					<dim>128</dim>
					<dim>6</dim>
					<dim>6</dim>
				</port>
			</output>
		</layer>
		<layer id="127" name="1166" precision="FP32" type="Convolution">
			<data dilations="1,1" group="1" kernel="3,3" output="32" pads_begin="1,1" pads_end="1,1" strides="1,1"/>
			<input>
				<port id="0">
					<dim>1</dim>
					<dim>128</dim>
					<dim>6</dim>
					<dim>6</dim>
				</port>
			</input>
			<output>
				<port id="2">
					<dim>1</dim>
					<dim>32</dim>
					<dim>6</dim>
					<dim>6</dim>
				</port>
			</output>
			<blobs>
				<weights offset="5842688" size="147456"/>
			</blobs>
		</layer>
		<layer id="128" name="1167" precision="FP32" type="Concat">
			<data axis="1"/>
			<input>
				<port id="0">
					<dim>1</dim>
					<dim>256</dim>
					<dim>6</dim>
					<dim>6</dim>
				</port>
				<port id="1">
					<dim>1</dim>
					<dim>32</dim>
					<dim>6</dim>
					<dim>6</dim>
				</port>
			</input>
			<output>
				<port id="2">
					<dim>1</dim>
					<dim>288</dim>
					<dim>6</dim>
					<dim>6</dim>
				</port>
			</output>
		</layer>
		<layer id="129" name="Mul1_20752/Fused_Mul_/FusedScaleShift_" precision="FP32" type="ScaleShift">
			<input>
				<port id="0">
					<dim>1</dim>
					<dim>288</dim>
					<dim>6</dim>
					<dim>6</dim>
				</port>
			</input>
			<output>
				<port id="3">
					<dim>1</dim>
					<dim>288</dim>
					<dim>6</dim>
					<dim>6</dim>
				</port>
			</output>
			<blobs>
				<weights offset="5990144" size="1152"/>
				<biases offset="5991296" size="1152"/>
			</blobs>
		</layer>
		<layer id="130" name="1169" precision="FP32" type="ReLU">
			<input>
				<port id="0">
					<dim>1</dim>
					<dim>288</dim>
					<dim>6</dim>
					<dim>6</dim>
				</port>
			</input>
			<output>
				<port id="1">
					<dim>1</dim>
					<dim>288</dim>
					<dim>6</dim>
					<dim>6</dim>
				</port>
			</output>
		</layer>
		<layer id="131" name="1170" precision="FP32" type="Convolution">
			<data dilations="1,1" group="1" kernel="1,1" output="128" pads_begin="0,0" pads_end="0,0" strides="1,1"/>
			<input>
				<port id="0">
					<dim>1</dim>
					<dim>288</dim>
					<dim>6</dim>
					<dim>6</dim>
				</port>
			</input>
			<output>
				<port id="3">
					<dim>1</dim>
					<dim>128</dim>
					<dim>6</dim>
					<dim>6</dim>
				</port>
			</output>
			<blobs>
				<weights offset="5992448" size="147456"/>
				<biases offset="6139904" size="512"/>
			</blobs>
		</layer>
		<layer id="132" name="1172" precision="FP32" type="ReLU">
			<input>
				<port id="0">
					<dim>1</dim>
					<dim>128</dim>
					<dim>6</dim>
					<dim>6</dim>
				</port>
			</input>
			<output>
				<port id="1">
					<dim>1</dim>
					<dim>128</dim>
					<dim>6</dim>
					<dim>6</dim>
				</port>
			</output>
		</layer>
		<layer id="133" name="1173" precision="FP32" type="Convolution">
			<data dilations="1,1" group="1" kernel="3,3" output="32" pads_begin="1,1" pads_end="1,1" strides="1,1"/>
			<input>
				<port id="0">
					<dim>1</dim>
					<dim>128</dim>
					<dim>6</dim>
					<dim>6</dim>
				</port>
			</input>
			<output>
				<port id="2">
					<dim>1</dim>
					<dim>32</dim>
					<dim>6</dim>
					<dim>6</dim>
				</port>
			</output>
			<blobs>
				<weights offset="6140416" size="147456"/>
			</blobs>
		</layer>
		<layer id="134" name="1174" precision="FP32" type="Concat">
			<data axis="1"/>
			<input>
				<port id="0">
					<dim>1</dim>
					<dim>256</dim>
					<dim>6</dim>
					<dim>6</dim>
				</port>
				<port id="1">
					<dim>1</dim>
					<dim>32</dim>
					<dim>6</dim>
					<dim>6</dim>
				</port>
				<port id="2">
					<dim>1</dim>
					<dim>32</dim>
					<dim>6</dim>
					<dim>6</dim>
				</port>
			</input>
			<output>
				<port id="3">
					<dim>1</dim>
					<dim>320</dim>
					<dim>6</dim>
					<dim>6</dim>
				</port>
			</output>
		</layer>
		<layer id="135" name="Mul1_19456/Fused_Mul_/FusedScaleShift_" precision="FP32" type="ScaleShift">
			<input>
				<port id="0">
					<dim>1</dim>
					<dim>320</dim>
					<dim>6</dim>
					<dim>6</dim>
				</port>
			</input>
			<output>
				<port id="3">
					<dim>1</dim>
					<dim>320</dim>
					<dim>6</dim>
					<dim>6</dim>
				</port>
			</output>
			<blobs>
				<weights offset="6287872" size="1280"/>
				<biases offset="6289152" size="1280"/>
			</blobs>
		</layer>
		<layer id="136" name="1176" precision="FP32" type="ReLU">
			<input>
				<port id="0">
					<dim>1</dim>
					<dim>320</dim>
					<dim>6</dim>
					<dim>6</dim>
				</port>
			</input>
			<output>
				<port id="1">
					<dim>1</dim>
					<dim>320</dim>
					<dim>6</dim>
					<dim>6</dim>
				</port>
			</output>
		</layer>
		<layer id="137" name="1177" precision="FP32" type="Convolution">
			<data dilations="1,1" group="1" kernel="1,1" output="128" pads_begin="0,0" pads_end="0,0" strides="1,1"/>
			<input>
				<port id="0">
					<dim>1</dim>
					<dim>320</dim>
					<dim>6</dim>
					<dim>6</dim>
				</port>
			</input>
			<output>
				<port id="3">
					<dim>1</dim>
					<dim>128</dim>
					<dim>6</dim>
					<dim>6</dim>
				</port>
			</output>
			<blobs>
				<weights offset="6290432" size="163840"/>
				<biases offset="6454272" size="512"/>
			</blobs>
		</layer>
		<layer id="138" name="1179" precision="FP32" type="ReLU">
			<input>
				<port id="0">
					<dim>1</dim>
					<dim>128</dim>
					<dim>6</dim>
					<dim>6</dim>
				</port>
			</input>
			<output>
				<port id="1">
					<dim>1</dim>
					<dim>128</dim>
					<dim>6</dim>
					<dim>6</dim>
				</port>
			</output>
		</layer>
		<layer id="139" name="1180" precision="FP32" type="Convolution">
			<data dilations="1,1" group="1" kernel="3,3" output="32" pads_begin="1,1" pads_end="1,1" strides="1,1"/>
			<input>
				<port id="0">
					<dim>1</dim>
					<dim>128</dim>
					<dim>6</dim>
					<dim>6</dim>
				</port>
			</input>
			<output>
				<port id="2">
					<dim>1</dim>
					<dim>32</dim>
					<dim>6</dim>
					<dim>6</dim>
				</port>
			</output>
			<blobs>
				<weights offset="6454784" size="147456"/>
			</blobs>
		</layer>
		<layer id="140" name="1181" precision="FP32" type="Concat">
			<data axis="1"/>
			<input>
				<port id="0">
					<dim>1</dim>
					<dim>256</dim>
					<dim>6</dim>
					<dim>6</dim>
				</port>
				<port id="1">
					<dim>1</dim>
					<dim>32</dim>
					<dim>6</dim>
					<dim>6</dim>
				</port>
				<port id="2">
					<dim>1</dim>
					<dim>32</dim>
					<dim>6</dim>
					<dim>6</dim>
				</port>
				<port id="3">
					<dim>1</dim>
					<dim>32</dim>
					<dim>6</dim>
					<dim>6</dim>
				</port>
			</input>
			<output>
				<port id="4">
					<dim>1</dim>
					<dim>352</dim>
					<dim>6</dim>
					<dim>6</dim>
				</port>
			</output>
		</layer>
		<layer id="141" name="Mul1_20428/Fused_Mul_/FusedScaleShift_" precision="FP32" type="ScaleShift">
			<input>
				<port id="0">
					<dim>1</dim>
					<dim>352</dim>
					<dim>6</dim>
					<dim>6</dim>
				</port>
			</input>
			<output>
				<port id="3">
					<dim>1</dim>
					<dim>352</dim>
					<dim>6</dim>
					<dim>6</dim>
				</port>
			</output>
			<blobs>
				<weights offset="6602240" size="1408"/>
				<biases offset="6603648" size="1408"/>
			</blobs>
		</layer>
		<layer id="142" name="1183" precision="FP32" type="ReLU">
			<input>
				<port id="0">
					<dim>1</dim>
					<dim>352</dim>
					<dim>6</dim>
					<dim>6</dim>
				</port>
			</input>
			<output>
				<port id="1">
					<dim>1</dim>
					<dim>352</dim>
					<dim>6</dim>
					<dim>6</dim>
				</port>
			</output>
		</layer>
		<layer id="143" name="1184" precision="FP32" type="Convolution">
			<data dilations="1,1" group="1" kernel="1,1" output="128" pads_begin="0,0" pads_end="0,0" strides="1,1"/>
			<input>
				<port id="0">
					<dim>1</dim>
					<dim>352</dim>
					<dim>6</dim>
					<dim>6</dim>
				</port>
			</input>
			<output>
				<port id="3">
					<dim>1</dim>
					<dim>128</dim>
					<dim>6</dim>
					<dim>6</dim>
				</port>
			</output>
			<blobs>
				<weights offset="6605056" size="180224"/>
				<biases offset="6785280" size="512"/>
			</blobs>
		</layer>
		<layer id="144" name="1186" precision="FP32" type="ReLU">
			<input>
				<port id="0">
					<dim>1</dim>
					<dim>128</dim>
					<dim>6</dim>
					<dim>6</dim>
				</port>
			</input>
			<output>
				<port id="1">
					<dim>1</dim>
					<dim>128</dim>
					<dim>6</dim>
					<dim>6</dim>
				</port>
			</output>
		</layer>
		<layer id="145" name="1187" precision="FP32" type="Convolution">
			<data dilations="1,1" group="1" kernel="3,3" output="32" pads_begin="1,1" pads_end="1,1" strides="1,1"/>
			<input>
				<port id="0">
					<dim>1</dim>
					<dim>128</dim>
					<dim>6</dim>
					<dim>6</dim>
				</port>
			</input>
			<output>
				<port id="2">
					<dim>1</dim>
					<dim>32</dim>
					<dim>6</dim>
					<dim>6</dim>
				</port>
			</output>
			<blobs>
				<weights offset="6785792" size="147456"/>
			</blobs>
		</layer>
		<layer id="146" name="1188" precision="FP32" type="Concat">
			<data axis="1"/>
			<input>
				<port id="0">
					<dim>1</dim>
					<dim>256</dim>
					<dim>6</dim>
					<dim>6</dim>
				</port>
				<port id="1">
					<dim>1</dim>
					<dim>32</dim>
					<dim>6</dim>
					<dim>6</dim>
				</port>
				<port id="2">
					<dim>1</dim>
					<dim>32</dim>
					<dim>6</dim>
					<dim>6</dim>
				</port>
				<port id="3">
					<dim>1</dim>
					<dim>32</dim>
					<dim>6</dim>
					<dim>6</dim>
				</port>
				<port id="4">
					<dim>1</dim>
					<dim>32</dim>
					<dim>6</dim>
					<dim>6</dim>
				</port>
			</input>
			<output>
				<port id="5">
					<dim>1</dim>
					<dim>384</dim>
					<dim>6</dim>
					<dim>6</dim>
				</port>
			</output>
		</layer>
		<layer id="147" name="Mul1_20476/Fused_Mul_/FusedScaleShift_" precision="FP32" type="ScaleShift">
			<input>
				<port id="0">
					<dim>1</dim>
					<dim>384</dim>
					<dim>6</dim>
					<dim>6</dim>
				</port>
			</input>
			<output>
				<port id="3">
					<dim>1</dim>
					<dim>384</dim>
					<dim>6</dim>
					<dim>6</dim>
				</port>
			</output>
			<blobs>
				<weights offset="6933248" size="1536"/>
				<biases offset="6934784" size="1536"/>
			</blobs>
		</layer>
		<layer id="148" name="1190" precision="FP32" type="ReLU">
			<input>
				<port id="0">
					<dim>1</dim>
					<dim>384</dim>
					<dim>6</dim>
					<dim>6</dim>
				</port>
			</input>
			<output>
				<port id="1">
					<dim>1</dim>
					<dim>384</dim>
					<dim>6</dim>
					<dim>6</dim>
				</port>
			</output>
		</layer>
		<layer id="149" name="1191" precision="FP32" type="Convolution">
			<data dilations="1,1" group="1" kernel="1,1" output="128" pads_begin="0,0" pads_end="0,0" strides="1,1"/>
			<input>
				<port id="0">
					<dim>1</dim>
					<dim>384</dim>
					<dim>6</dim>
					<dim>6</dim>
				</port>
			</input>
			<output>
				<port id="3">
					<dim>1</dim>
					<dim>128</dim>
					<dim>6</dim>
					<dim>6</dim>
				</port>
			</output>
			<blobs>
				<weights offset="6936320" size="196608"/>
				<biases offset="7132928" size="512"/>
			</blobs>
		</layer>
		<layer id="150" name="1193" precision="FP32" type="ReLU">
			<input>
				<port id="0">
					<dim>1</dim>
					<dim>128</dim>
					<dim>6</dim>
					<dim>6</dim>
				</port>
			</input>
			<output>
				<port id="1">
					<dim>1</dim>
					<dim>128</dim>
					<dim>6</dim>
					<dim>6</dim>
				</port>
			</output>
		</layer>
		<layer id="151" name="1194" precision="FP32" type="Convolution">
			<data dilations="1,1" group="1" kernel="3,3" output="32" pads_begin="1,1" pads_end="1,1" strides="1,1"/>
			<input>
				<port id="0">
					<dim>1</dim>
					<dim>128</dim>
					<dim>6</dim>
					<dim>6</dim>
				</port>
			</input>
			<output>
				<port id="2">
					<dim>1</dim>
					<dim>32</dim>
					<dim>6</dim>
					<dim>6</dim>
				</port>
			</output>
			<blobs>
				<weights offset="7133440" size="147456"/>
			</blobs>
		</layer>
		<layer id="152" name="1195" precision="FP32" type="Concat">
			<data axis="1"/>
			<input>
				<port id="0">
					<dim>1</dim>
					<dim>256</dim>
					<dim>6</dim>
					<dim>6</dim>
				</port>
				<port id="1">
					<dim>1</dim>
					<dim>32</dim>
					<dim>6</dim>
					<dim>6</dim>
				</port>
				<port id="2">
					<dim>1</dim>
					<dim>32</dim>
					<dim>6</dim>
					<dim>6</dim>
				</port>
				<port id="3">
					<dim>1</dim>
					<dim>32</dim>
					<dim>6</dim>
					<dim>6</dim>
				</port>
				<port id="4">
					<dim>1</dim>
					<dim>32</dim>
					<dim>6</dim>
					<dim>6</dim>
				</port>
				<port id="5">
					<dim>1</dim>
					<dim>32</dim>
					<dim>6</dim>
					<dim>6</dim>
				</port>
			</input>
			<output>
				<port id="6">
					<dim>1</dim>
					<dim>416</dim>
					<dim>6</dim>
					<dim>6</dim>
				</port>
			</output>
		</layer>
		<layer id="153" name="Mul1_21040/Fused_Mul_/FusedScaleShift_" precision="FP32" type="ScaleShift">
			<input>
				<port id="0">
					<dim>1</dim>
					<dim>416</dim>
					<dim>6</dim>
					<dim>6</dim>
				</port>
			</input>
			<output>
				<port id="3">
					<dim>1</dim>
					<dim>416</dim>
					<dim>6</dim>
					<dim>6</dim>
				</port>
			</output>
			<blobs>
				<weights offset="7280896" size="1664"/>
				<biases offset="7282560" size="1664"/>
			</blobs>
		</layer>
		<layer id="154" name="1197" precision="FP32" type="ReLU">
			<input>
				<port id="0">
					<dim>1</dim>
					<dim>416</dim>
					<dim>6</dim>
					<dim>6</dim>
				</port>
			</input>
			<output>
				<port id="1">
					<dim>1</dim>
					<dim>416</dim>
					<dim>6</dim>
					<dim>6</dim>
				</port>
			</output>
		</layer>
		<layer id="155" name="1198" precision="FP32" type="Convolution">
			<data dilations="1,1" group="1" kernel="1,1" output="128" pads_begin="0,0" pads_end="0,0" strides="1,1"/>
			<input>
				<port id="0">
					<dim>1</dim>
					<dim>416</dim>
					<dim>6</dim>
					<dim>6</dim>
				</port>
			</input>
			<output>
				<port id="3">
					<dim>1</dim>
					<dim>128</dim>
					<dim>6</dim>
					<dim>6</dim>
				</port>
			</output>
			<blobs>
				<weights offset="7284224" size="212992"/>
				<biases offset="7497216" size="512"/>
			</blobs>
		</layer>
		<layer id="156" name="1200" precision="FP32" type="ReLU">
			<input>
				<port id="0">
					<dim>1</dim>
					<dim>128</dim>
					<dim>6</dim>
					<dim>6</dim>
				</port>
			</input>
			<output>
				<port id="1">
					<dim>1</dim>
					<dim>128</dim>
					<dim>6</dim>
					<dim>6</dim>
				</port>
			</output>
		</layer>
		<layer id="157" name="1201" precision="FP32" type="Convolution">
			<data dilations="1,1" group="1" kernel="3,3" output="32" pads_begin="1,1" pads_end="1,1" strides="1,1"/>
			<input>
				<port id="0">
					<dim>1</dim>
					<dim>128</dim>
					<dim>6</dim>
					<dim>6</dim>
				</port>
			</input>
			<output>
				<port id="2">
					<dim>1</dim>
					<dim>32</dim>
					<dim>6</dim>
					<dim>6</dim>
				</port>
			</output>
			<blobs>
				<weights offset="7497728" size="147456"/>
			</blobs>
		</layer>
		<layer id="158" name="1202" precision="FP32" type="Concat">
			<data axis="1"/>
			<input>
				<port id="0">
					<dim>1</dim>
					<dim>256</dim>
					<dim>6</dim>
					<dim>6</dim>
				</port>
				<port id="1">
					<dim>1</dim>
					<dim>32</dim>
					<dim>6</dim>
					<dim>6</dim>
				</port>
				<port id="2">
					<dim>1</dim>
					<dim>32</dim>
					<dim>6</dim>
					<dim>6</dim>
				</port>
				<port id="3">
					<dim>1</dim>
					<dim>32</dim>
					<dim>6</dim>
					<dim>6</dim>
				</port>
				<port id="4">
					<dim>1</dim>
					<dim>32</dim>
					<dim>6</dim>
					<dim>6</dim>
				</port>
				<port id="5">
					<dim>1</dim>
					<dim>32</dim>
					<dim>6</dim>
					<dim>6</dim>
				</port>
				<port id="6">
					<dim>1</dim>
					<dim>32</dim>
					<dim>6</dim>
					<dim>6</dim>
				</port>
			</input>
			<output>
				<port id="7">
					<dim>1</dim>
					<dim>448</dim>
					<dim>6</dim>
					<dim>6</dim>
				</port>
			</output>
		</layer>
		<layer id="159" name="Mul1_21160/Fused_Mul_/FusedScaleShift_" precision="FP32" type="ScaleShift">
			<input>
				<port id="0">
					<dim>1</dim>
					<dim>448</dim>
					<dim>6</dim>
					<dim>6</dim>
				</port>
			</input>
			<output>
				<port id="3">
					<dim>1</dim>
					<dim>448</dim>
					<dim>6</dim>
					<dim>6</dim>
				</port>
			</output>
			<blobs>
				<weights offset="7645184" size="1792"/>
				<biases offset="7646976" size="1792"/>
			</blobs>
		</layer>
		<layer id="160" name="1204" precision="FP32" type="ReLU">
			<input>
				<port id="0">
					<dim>1</dim>
					<dim>448</dim>
					<dim>6</dim>
					<dim>6</dim>
				</port>
			</input>
			<output>
				<port id="1">
					<dim>1</dim>
					<dim>448</dim>
					<dim>6</dim>
					<dim>6</dim>
				</port>
			</output>
		</layer>
		<layer id="161" name="1205" precision="FP32" type="Convolution">
			<data dilations="1,1" group="1" kernel="1,1" output="128" pads_begin="0,0" pads_end="0,0" strides="1,1"/>
			<input>
				<port id="0">
					<dim>1</dim>
					<dim>448</dim>
					<dim>6</dim>
					<dim>6</dim>
				</port>
			</input>
			<output>
				<port id="3">
					<dim>1</dim>
					<dim>128</dim>
					<dim>6</dim>
					<dim>6</dim>
				</port>
			</output>
			<blobs>
				<weights offset="7648768" size="229376"/>
				<biases offset="7878144" size="512"/>
			</blobs>
		</layer>
		<layer id="162" name="1207" precision="FP32" type="ReLU">
			<input>
				<port id="0">
					<dim>1</dim>
					<dim>128</dim>
					<dim>6</dim>
					<dim>6</dim>
				</port>
			</input>
			<output>
				<port id="1">
					<dim>1</dim>
					<dim>128</dim>
					<dim>6</dim>
					<dim>6</dim>
				</port>
			</output>
		</layer>
		<layer id="163" name="1208" precision="FP32" type="Convolution">
			<data dilations="1,1" group="1" kernel="3,3" output="32" pads_begin="1,1" pads_end="1,1" strides="1,1"/>
			<input>
				<port id="0">
					<dim>1</dim>
					<dim>128</dim>
					<dim>6</dim>
					<dim>6</dim>
				</port>
			</input>
			<output>
				<port id="2">
					<dim>1</dim>
					<dim>32</dim>
					<dim>6</dim>
					<dim>6</dim>
				</port>
			</output>
			<blobs>
				<weights offset="7878656" size="147456"/>
			</blobs>
		</layer>
		<layer id="164" name="1209" precision="FP32" type="Concat">
			<data axis="1"/>
			<input>
				<port id="0">
					<dim>1</dim>
					<dim>256</dim>
					<dim>6</dim>
					<dim>6</dim>
				</port>
				<port id="1">
					<dim>1</dim>
					<dim>32</dim>
					<dim>6</dim>
					<dim>6</dim>
				</port>
				<port id="2">
					<dim>1</dim>
					<dim>32</dim>
					<dim>6</dim>
					<dim>6</dim>
				</port>
				<port id="3">
					<dim>1</dim>
					<dim>32</dim>
					<dim>6</dim>
					<dim>6</dim>
				</port>
				<port id="4">
					<dim>1</dim>
					<dim>32</dim>
					<dim>6</dim>
					<dim>6</dim>
				</port>
				<port id="5">
					<dim>1</dim>
					<dim>32</dim>
					<dim>6</dim>
					<dim>6</dim>
				</port>
				<port id="6">
					<dim>1</dim>
					<dim>32</dim>
					<dim>6</dim>
					<dim>6</dim>
				</port>
				<port id="7">
					<dim>1</dim>
					<dim>32</dim>
					<dim>6</dim>
					<dim>6</dim>
				</port>
			</input>
			<output>
				<port id="8">
					<dim>1</dim>
					<dim>480</dim>
					<dim>6</dim>
					<dim>6</dim>
				</port>
			</output>
		</layer>
		<layer id="165" name="Mul1_20680/Fused_Mul_/FusedScaleShift_" precision="FP32" type="ScaleShift">
			<input>
				<port id="0">
					<dim>1</dim>
					<dim>480</dim>
					<dim>6</dim>
					<dim>6</dim>
				</port>
			</input>
			<output>
				<port id="3">
					<dim>1</dim>
					<dim>480</dim>
					<dim>6</dim>
					<dim>6</dim>
				</port>
			</output>
			<blobs>
				<weights offset="8026112" size="1920"/>
				<biases offset="8028032" size="1920"/>
			</blobs>
		</layer>
		<layer id="166" name="1211" precision="FP32" type="ReLU">
			<input>
				<port id="0">
					<dim>1</dim>
					<dim>480</dim>
					<dim>6</dim>
					<dim>6</dim>
				</port>
			</input>
			<output>
				<port id="1">
					<dim>1</dim>
					<dim>480</dim>
					<dim>6</dim>
					<dim>6</dim>
				</port>
			</output>
		</layer>
		<layer id="167" name="1212" precision="FP32" type="Convolution">
			<data dilations="1,1" group="1" kernel="1,1" output="128" pads_begin="0,0" pads_end="0,0" strides="1,1"/>
			<input>
				<port id="0">
					<dim>1</dim>
					<dim>480</dim>
					<dim>6</dim>
					<dim>6</dim>
				</port>
			</input>
			<output>
				<port id="3">
					<dim>1</dim>
					<dim>128</dim>
					<dim>6</dim>
					<dim>6</dim>
				</port>
			</output>
			<blobs>
				<weights offset="8029952" size="245760"/>
				<biases offset="8275712" size="512"/>
			</blobs>
		</layer>
		<layer id="168" name="1214" precision="FP32" type="ReLU">
			<input>
				<port id="0">
					<dim>1</dim>
					<dim>128</dim>
					<dim>6</dim>
					<dim>6</dim>
				</port>
			</input>
			<output>
				<port id="1">
					<dim>1</dim>
					<dim>128</dim>
					<dim>6</dim>
					<dim>6</dim>
				</port>
			</output>
		</layer>
		<layer id="169" name="1215" precision="FP32" type="Convolution">
			<data dilations="1,1" group="1" kernel="3,3" output="32" pads_begin="1,1" pads_end="1,1" strides="1,1"/>
			<input>
				<port id="0">
					<dim>1</dim>
					<dim>128</dim>
					<dim>6</dim>
					<dim>6</dim>
				</port>
			</input>
			<output>
				<port id="2">
					<dim>1</dim>
					<dim>32</dim>
					<dim>6</dim>
					<dim>6</dim>
				</port>
			</output>
			<blobs>
				<weights offset="8276224" size="147456"/>
			</blobs>
		</layer>
		<layer id="170" name="1216" precision="FP32" type="Concat">
			<data axis="1"/>
			<input>
				<port id="0">
					<dim>1</dim>
					<dim>256</dim>
					<dim>6</dim>
					<dim>6</dim>
				</port>
				<port id="1">
					<dim>1</dim>
					<dim>32</dim>
					<dim>6</dim>
					<dim>6</dim>
				</port>
				<port id="2">
					<dim>1</dim>
					<dim>32</dim>
					<dim>6</dim>
					<dim>6</dim>
				</port>
				<port id="3">
					<dim>1</dim>
					<dim>32</dim>
					<dim>6</dim>
					<dim>6</dim>
				</port>
				<port id="4">
					<dim>1</dim>
					<dim>32</dim>
					<dim>6</dim>
					<dim>6</dim>
				</port>
				<port id="5">
					<dim>1</dim>
					<dim>32</dim>
					<dim>6</dim>
					<dim>6</dim>
				</port>
				<port id="6">
					<dim>1</dim>
					<dim>32</dim>
					<dim>6</dim>
					<dim>6</dim>
				</port>
				<port id="7">
					<dim>1</dim>
					<dim>32</dim>
					<dim>6</dim>
					<dim>6</dim>
				</port>
				<port id="8">
					<dim>1</dim>
					<dim>32</dim>
					<dim>6</dim>
					<dim>6</dim>
				</port>
			</input>
			<output>
				<port id="9">
					<dim>1</dim>
					<dim>512</dim>
					<dim>6</dim>
					<dim>6</dim>
				</port>
			</output>
		</layer>
		<layer id="171" name="Mul1_19684/Fused_Mul_/FusedScaleShift_" precision="FP32" type="ScaleShift">
			<input>
				<port id="0">
					<dim>1</dim>
					<dim>512</dim>
					<dim>6</dim>
					<dim>6</dim>
				</port>
			</input>
			<output>
				<port id="3">
					<dim>1</dim>
					<dim>512</dim>
					<dim>6</dim>
					<dim>6</dim>
				</port>
			</output>
			<blobs>
				<weights offset="8423680" size="2048"/>
				<biases offset="8425728" size="2048"/>
			</blobs>
		</layer>
		<layer id="172" name="1218" precision="FP32" type="ReLU">
			<input>
				<port id="0">
					<dim>1</dim>
					<dim>512</dim>
					<dim>6</dim>
					<dim>6</dim>
				</port>
			</input>
			<output>
				<port id="1">
					<dim>1</dim>
					<dim>512</dim>
					<dim>6</dim>
					<dim>6</dim>
				</port>
			</output>
		</layer>
		<layer id="173" name="1219" precision="FP32" type="Convolution">
			<data dilations="1,1" group="1" kernel="1,1" output="128" pads_begin="0,0" pads_end="0,0" strides="1,1"/>
			<input>
				<port id="0">
					<dim>1</dim>
					<dim>512</dim>
					<dim>6</dim>
					<dim>6</dim>
				</port>
			</input>
			<output>
				<port id="3">
					<dim>1</dim>
					<dim>128</dim>
					<dim>6</dim>
					<dim>6</dim>
				</port>
			</output>
			<blobs>
				<weights offset="8427776" size="262144"/>
				<biases offset="8689920" size="512"/>
			</blobs>
		</layer>
		<layer id="174" name="1221" precision="FP32" type="ReLU">
			<input>
				<port id="0">
					<dim>1</dim>
					<dim>128</dim>
					<dim>6</dim>
					<dim>6</dim>
				</port>
			</input>
			<output>
				<port id="1">
					<dim>1</dim>
					<dim>128</dim>
					<dim>6</dim>
					<dim>6</dim>
				</port>
			</output>
		</layer>
		<layer id="175" name="1222" precision="FP32" type="Convolution">
			<data dilations="1,1" group="1" kernel="3,3" output="32" pads_begin="1,1" pads_end="1,1" strides="1,1"/>
			<input>
				<port id="0">
					<dim>1</dim>
					<dim>128</dim>
					<dim>6</dim>
					<dim>6</dim>
				</port>
			</input>
			<output>
				<port id="2">
					<dim>1</dim>
					<dim>32</dim>
					<dim>6</dim>
					<dim>6</dim>
				</port>
			</output>
			<blobs>
				<weights offset="8690432" size="147456"/>
			</blobs>
		</layer>
		<layer id="176" name="1223" precision="FP32" type="Concat">
			<data axis="1"/>
			<input>
				<port id="0">
					<dim>1</dim>
					<dim>256</dim>
					<dim>6</dim>
					<dim>6</dim>
				</port>
				<port id="1">
					<dim>1</dim>
					<dim>32</dim>
					<dim>6</dim>
					<dim>6</dim>
				</port>
				<port id="2">
					<dim>1</dim>
					<dim>32</dim>
					<dim>6</dim>
					<dim>6</dim>
				</port>
				<port id="3">
					<dim>1</dim>
					<dim>32</dim>
					<dim>6</dim>
					<dim>6</dim>
				</port>
				<port id="4">
					<dim>1</dim>
					<dim>32</dim>
					<dim>6</dim>
					<dim>6</dim>
				</port>
				<port id="5">
					<dim>1</dim>
					<dim>32</dim>
					<dim>6</dim>
					<dim>6</dim>
				</port>
				<port id="6">
					<dim>1</dim>
					<dim>32</dim>
					<dim>6</dim>
					<dim>6</dim>
				</port>
				<port id="7">
					<dim>1</dim>
					<dim>32</dim>
					<dim>6</dim>
					<dim>6</dim>
				</port>
				<port id="8">
					<dim>1</dim>
					<dim>32</dim>
					<dim>6</dim>
					<dim>6</dim>
				</port>
				<port id="9">
					<dim>1</dim>
					<dim>32</dim>
					<dim>6</dim>
					<dim>6</dim>
				</port>
			</input>
			<output>
				<port id="10">
					<dim>1</dim>
					<dim>544</dim>
					<dim>6</dim>
					<dim>6</dim>
				</port>
			</output>
		</layer>
		<layer id="177" name="Mul1_20728/Fused_Mul_/FusedScaleShift_" precision="FP32" type="ScaleShift">
			<input>
				<port id="0">
					<dim>1</dim>
					<dim>544</dim>
					<dim>6</dim>
					<dim>6</dim>
				</port>
			</input>
			<output>
				<port id="3">
					<dim>1</dim>
					<dim>544</dim>
					<dim>6</dim>
					<dim>6</dim>
				</port>
			</output>
			<blobs>
				<weights offset="8837888" size="2176"/>
				<biases offset="8840064" size="2176"/>
			</blobs>
		</layer>
		<layer id="178" name="1225" precision="FP32" type="ReLU">
			<input>
				<port id="0">
					<dim>1</dim>
					<dim>544</dim>
					<dim>6</dim>
					<dim>6</dim>
				</port>
			</input>
			<output>
				<port id="1">
					<dim>1</dim>
					<dim>544</dim>
					<dim>6</dim>
					<dim>6</dim>
				</port>
			</output>
		</layer>
		<layer id="179" name="1226" precision="FP32" type="Convolution">
			<data dilations="1,1" group="1" kernel="1,1" output="128" pads_begin="0,0" pads_end="0,0" strides="1,1"/>
			<input>
				<port id="0">
					<dim>1</dim>
					<dim>544</dim>
					<dim>6</dim>
					<dim>6</dim>
				</port>
			</input>
			<output>
				<port id="3">
					<dim>1</dim>
					<dim>128</dim>
					<dim>6</dim>
					<dim>6</dim>
				</port>
			</output>
			<blobs>
				<weights offset="8842240" size="278528"/>
				<biases offset="9120768" size="512"/>
			</blobs>
		</layer>
		<layer id="180" name="1228" precision="FP32" type="ReLU">
			<input>
				<port id="0">
					<dim>1</dim>
					<dim>128</dim>
					<dim>6</dim>
					<dim>6</dim>
				</port>
			</input>
			<output>
				<port id="1">
					<dim>1</dim>
					<dim>128</dim>
					<dim>6</dim>
					<dim>6</dim>
				</port>
			</output>
		</layer>
		<layer id="181" name="1229" precision="FP32" type="Convolution">
			<data dilations="1,1" group="1" kernel="3,3" output="32" pads_begin="1,1" pads_end="1,1" strides="1,1"/>
			<input>
				<port id="0">
					<dim>1</dim>
					<dim>128</dim>
					<dim>6</dim>
					<dim>6</dim>
				</port>
			</input>
			<output>
				<port id="2">
					<dim>1</dim>
					<dim>32</dim>
					<dim>6</dim>
					<dim>6</dim>
				</port>
			</output>
			<blobs>
				<weights offset="9121280" size="147456"/>
			</blobs>
		</layer>
		<layer id="182" name="1230" precision="FP32" type="Concat">
			<data axis="1"/>
			<input>
				<port id="0">
					<dim>1</dim>
					<dim>256</dim>
					<dim>6</dim>
					<dim>6</dim>
				</port>
				<port id="1">
					<dim>1</dim>
					<dim>32</dim>
					<dim>6</dim>
					<dim>6</dim>
				</port>
				<port id="2">
					<dim>1</dim>
					<dim>32</dim>
					<dim>6</dim>
					<dim>6</dim>
				</port>
				<port id="3">
					<dim>1</dim>
					<dim>32</dim>
					<dim>6</dim>
					<dim>6</dim>
				</port>
				<port id="4">
					<dim>1</dim>
					<dim>32</dim>
					<dim>6</dim>
					<dim>6</dim>
				</port>
				<port id="5">
					<dim>1</dim>
					<dim>32</dim>
					<dim>6</dim>
					<dim>6</dim>
				</port>
				<port id="6">
					<dim>1</dim>
					<dim>32</dim>
					<dim>6</dim>
					<dim>6</dim>
				</port>
				<port id="7">
					<dim>1</dim>
					<dim>32</dim>
					<dim>6</dim>
					<dim>6</dim>
				</port>
				<port id="8">
					<dim>1</dim>
					<dim>32</dim>
					<dim>6</dim>
					<dim>6</dim>
				</port>
				<port id="9">
					<dim>1</dim>
					<dim>32</dim>
					<dim>6</dim>
					<dim>6</dim>
				</port>
				<port id="10">
					<dim>1</dim>
					<dim>32</dim>
					<dim>6</dim>
					<dim>6</dim>
				</port>
			</input>
			<output>
				<port id="11">
					<dim>1</dim>
					<dim>576</dim>
					<dim>6</dim>
					<dim>6</dim>
				</port>
			</output>
		</layer>
		<layer id="183" name="Mul1_20932/Fused_Mul_/FusedScaleShift_" precision="FP32" type="ScaleShift">
			<input>
				<port id="0">
					<dim>1</dim>
					<dim>576</dim>
					<dim>6</dim>
					<dim>6</dim>
				</port>
			</input>
			<output>
				<port id="3">
					<dim>1</dim>
					<dim>576</dim>
					<dim>6</dim>
					<dim>6</dim>
				</port>
			</output>
			<blobs>
				<weights offset="9268736" size="2304"/>
				<biases offset="9271040" size="2304"/>
			</blobs>
		</layer>
		<layer id="184" name="1232" precision="FP32" type="ReLU">
			<input>
				<port id="0">
					<dim>1</dim>
					<dim>576</dim>
					<dim>6</dim>
					<dim>6</dim>
				</port>
			</input>
			<output>
				<port id="1">
					<dim>1</dim>
					<dim>576</dim>
					<dim>6</dim>
					<dim>6</dim>
				</port>
			</output>
		</layer>
		<layer id="185" name="1233" precision="FP32" type="Convolution">
			<data dilations="1,1" group="1" kernel="1,1" output="128" pads_begin="0,0" pads_end="0,0" strides="1,1"/>
			<input>
				<port id="0">
					<dim>1</dim>
					<dim>576</dim>
					<dim>6</dim>
					<dim>6</dim>
				</port>
			</input>
			<output>
				<port id="3">
					<dim>1</dim>
					<dim>128</dim>
					<dim>6</dim>
					<dim>6</dim>
				</port>
			</output>
			<blobs>
				<weights offset="9273344" size="294912"/>
				<biases offset="9568256" size="512"/>
			</blobs>
		</layer>
		<layer id="186" name="1235" precision="FP32" type="ReLU">
			<input>
				<port id="0">
					<dim>1</dim>
					<dim>128</dim>
					<dim>6</dim>
					<dim>6</dim>
				</port>
			</input>
			<output>
				<port id="1">
					<dim>1</dim>
					<dim>128</dim>
					<dim>6</dim>
					<dim>6</dim>
				</port>
			</output>
		</layer>
		<layer id="187" name="1236" precision="FP32" type="Convolution">
			<data dilations="1,1" group="1" kernel="3,3" output="32" pads_begin="1,1" pads_end="1,1" strides="1,1"/>
			<input>
				<port id="0">
					<dim>1</dim>
					<dim>128</dim>
					<dim>6</dim>
					<dim>6</dim>
				</port>
			</input>
			<output>
				<port id="2">
					<dim>1</dim>
					<dim>32</dim>
					<dim>6</dim>
					<dim>6</dim>
				</port>
			</output>
			<blobs>
				<weights offset="9568768" size="147456"/>
			</blobs>
		</layer>
		<layer id="188" name="1237" precision="FP32" type="Concat">
			<data axis="1"/>
			<input>
				<port id="0">
					<dim>1</dim>
					<dim>256</dim>
					<dim>6</dim>
					<dim>6</dim>
				</port>
				<port id="1">
					<dim>1</dim>
					<dim>32</dim>
					<dim>6</dim>
					<dim>6</dim>
				</port>
				<port id="2">
					<dim>1</dim>
					<dim>32</dim>
					<dim>6</dim>
					<dim>6</dim>
				</port>
				<port id="3">
					<dim>1</dim>
					<dim>32</dim>
					<dim>6</dim>
					<dim>6</dim>
				</port>
				<port id="4">
					<dim>1</dim>
					<dim>32</dim>
					<dim>6</dim>
					<dim>6</dim>
				</port>
				<port id="5">
					<dim>1</dim>
					<dim>32</dim>
					<dim>6</dim>
					<dim>6</dim>
				</port>
				<port id="6">
					<dim>1</dim>
					<dim>32</dim>
					<dim>6</dim>
					<dim>6</dim>
				</port>
				<port id="7">
					<dim>1</dim>
					<dim>32</dim>
					<dim>6</dim>
					<dim>6</dim>
				</port>
				<port id="8">
					<dim>1</dim>
					<dim>32</dim>
					<dim>6</dim>
					<dim>6</dim>
				</port>
				<port id="9">
					<dim>1</dim>
					<dim>32</dim>
					<dim>6</dim>
					<dim>6</dim>
				</port>
				<port id="10">
					<dim>1</dim>
					<dim>32</dim>
					<dim>6</dim>
					<dim>6</dim>
				</port>
				<port id="11">
					<dim>1</dim>
					<dim>32</dim>
					<dim>6</dim>
					<dim>6</dim>
				</port>
			</input>
			<output>
				<port id="12">
					<dim>1</dim>
					<dim>608</dim>
					<dim>6</dim>
					<dim>6</dim>
				</port>
			</output>
		</layer>
		<layer id="189" name="Mul1_20236/Fused_Mul_/FusedScaleShift_" precision="FP32" type="ScaleShift">
			<input>
				<port id="0">
					<dim>1</dim>
					<dim>608</dim>
					<dim>6</dim>
					<dim>6</dim>
				</port>
			</input>
			<output>
				<port id="3">
					<dim>1</dim>
					<dim>608</dim>
					<dim>6</dim>
					<dim>6</dim>
				</port>
			</output>
			<blobs>
				<weights offset="9716224" size="2432"/>
				<biases offset="9718656" size="2432"/>
			</blobs>
		</layer>
		<layer id="190" name="1239" precision="FP32" type="ReLU">
			<input>
				<port id="0">
					<dim>1</dim>
					<dim>608</dim>
					<dim>6</dim>
					<dim>6</dim>
				</port>
			</input>
			<output>
				<port id="1">
					<dim>1</dim>
					<dim>608</dim>
					<dim>6</dim>
					<dim>6</dim>
				</port>
			</output>
		</layer>
		<layer id="191" name="1240" precision="FP32" type="Convolution">
			<data dilations="1,1" group="1" kernel="1,1" output="128" pads_begin="0,0" pads_end="0,0" strides="1,1"/>
			<input>
				<port id="0">
					<dim>1</dim>
					<dim>608</dim>
					<dim>6</dim>
					<dim>6</dim>
				</port>
			</input>
			<output>
				<port id="3">
					<dim>1</dim>
					<dim>128</dim>
					<dim>6</dim>
					<dim>6</dim>
				</port>
			</output>
			<blobs>
				<weights offset="9721088" size="311296"/>
				<biases offset="10032384" size="512"/>
			</blobs>
		</layer>
		<layer id="192" name="1242" precision="FP32" type="ReLU">
			<input>
				<port id="0">
					<dim>1</dim>
					<dim>128</dim>
					<dim>6</dim>
					<dim>6</dim>
				</port>
			</input>
			<output>
				<port id="1">
					<dim>1</dim>
					<dim>128</dim>
					<dim>6</dim>
					<dim>6</dim>
				</port>
			</output>
		</layer>
		<layer id="193" name="1243" precision="FP32" type="Convolution">
			<data dilations="1,1" group="1" kernel="3,3" output="32" pads_begin="1,1" pads_end="1,1" strides="1,1"/>
			<input>
				<port id="0">
					<dim>1</dim>
					<dim>128</dim>
					<dim>6</dim>
					<dim>6</dim>
				</port>
			</input>
			<output>
				<port id="2">
					<dim>1</dim>
					<dim>32</dim>
					<dim>6</dim>
					<dim>6</dim>
				</port>
			</output>
			<blobs>
				<weights offset="10032896" size="147456"/>
			</blobs>
		</layer>
		<layer id="194" name="1244" precision="FP32" type="Concat">
			<data axis="1"/>
			<input>
				<port id="0">
					<dim>1</dim>
					<dim>256</dim>
					<dim>6</dim>
					<dim>6</dim>
				</port>
				<port id="1">
					<dim>1</dim>
					<dim>32</dim>
					<dim>6</dim>
					<dim>6</dim>
				</port>
				<port id="2">
					<dim>1</dim>
					<dim>32</dim>
					<dim>6</dim>
					<dim>6</dim>
				</port>
				<port id="3">
					<dim>1</dim>
					<dim>32</dim>
					<dim>6</dim>
					<dim>6</dim>
				</port>
				<port id="4">
					<dim>1</dim>
					<dim>32</dim>
					<dim>6</dim>
					<dim>6</dim>
				</port>
				<port id="5">
					<dim>1</dim>
					<dim>32</dim>
					<dim>6</dim>
					<dim>6</dim>
				</port>
				<port id="6">
					<dim>1</dim>
					<dim>32</dim>
					<dim>6</dim>
					<dim>6</dim>
				</port>
				<port id="7">
					<dim>1</dim>
					<dim>32</dim>
					<dim>6</dim>
					<dim>6</dim>
				</port>
				<port id="8">
					<dim>1</dim>
					<dim>32</dim>
					<dim>6</dim>
					<dim>6</dim>
				</port>
				<port id="9">
					<dim>1</dim>
					<dim>32</dim>
					<dim>6</dim>
					<dim>6</dim>
				</port>
				<port id="10">
					<dim>1</dim>
					<dim>32</dim>
					<dim>6</dim>
					<dim>6</dim>
				</port>
				<port id="11">
					<dim>1</dim>
					<dim>32</dim>
					<dim>6</dim>
					<dim>6</dim>
				</port>
				<port id="12">
					<dim>1</dim>
					<dim>32</dim>
					<dim>6</dim>
					<dim>6</dim>
				</port>
			</input>
			<output>
				<port id="13">
					<dim>1</dim>
					<dim>640</dim>
					<dim>6</dim>
					<dim>6</dim>
				</port>
			</output>
		</layer>
		<layer id="195" name="Mul1_20188/Fused_Mul_/FusedScaleShift_" precision="FP32" type="ScaleShift">
			<input>
				<port id="0">
					<dim>1</dim>
					<dim>640</dim>
					<dim>6</dim>
					<dim>6</dim>
				</port>
			</input>
			<output>
				<port id="3">
					<dim>1</dim>
					<dim>640</dim>
					<dim>6</dim>
					<dim>6</dim>
				</port>
			</output>
			<blobs>
				<weights offset="10180352" size="2560"/>
				<biases offset="10182912" size="2560"/>
			</blobs>
		</layer>
		<layer id="196" name="1246" precision="FP32" type="ReLU">
			<input>
				<port id="0">
					<dim>1</dim>
					<dim>640</dim>
					<dim>6</dim>
					<dim>6</dim>
				</port>
			</input>
			<output>
				<port id="1">
					<dim>1</dim>
					<dim>640</dim>
					<dim>6</dim>
					<dim>6</dim>
				</port>
			</output>
		</layer>
		<layer id="197" name="1247" precision="FP32" type="Convolution">
			<data dilations="1,1" group="1" kernel="1,1" output="128" pads_begin="0,0" pads_end="0,0" strides="1,1"/>
			<input>
				<port id="0">
					<dim>1</dim>
					<dim>640</dim>
					<dim>6</dim>
					<dim>6</dim>
				</port>
			</input>
			<output>
				<port id="3">
					<dim>1</dim>
					<dim>128</dim>
					<dim>6</dim>
					<dim>6</dim>
				</port>
			</output>
			<blobs>
				<weights offset="10185472" size="327680"/>
				<biases offset="10513152" size="512"/>
			</blobs>
		</layer>
		<layer id="198" name="1249" precision="FP32" type="ReLU">
			<input>
				<port id="0">
					<dim>1</dim>
					<dim>128</dim>
					<dim>6</dim>
					<dim>6</dim>
				</port>
			</input>
			<output>
				<port id="1">
					<dim>1</dim>
					<dim>128</dim>
					<dim>6</dim>
					<dim>6</dim>
				</port>
			</output>
		</layer>
		<layer id="199" name="1250" precision="FP32" type="Convolution">
			<data dilations="1,1" group="1" kernel="3,3" output="32" pads_begin="1,1" pads_end="1,1" strides="1,1"/>
			<input>
				<port id="0">
					<dim>1</dim>
					<dim>128</dim>
					<dim>6</dim>
					<dim>6</dim>
				</port>
			</input>
			<output>
				<port id="2">
					<dim>1</dim>
					<dim>32</dim>
					<dim>6</dim>
					<dim>6</dim>
				</port>
			</output>
			<blobs>
				<weights offset="10513664" size="147456"/>
			</blobs>
		</layer>
		<layer id="200" name="1251" precision="FP32" type="Concat">
			<data axis="1"/>
			<input>
				<port id="0">
					<dim>1</dim>
					<dim>256</dim>
					<dim>6</dim>
					<dim>6</dim>
				</port>
				<port id="1">
					<dim>1</dim>
					<dim>32</dim>
					<dim>6</dim>
					<dim>6</dim>
				</port>
				<port id="2">
					<dim>1</dim>
					<dim>32</dim>
					<dim>6</dim>
					<dim>6</dim>
				</port>
				<port id="3">
					<dim>1</dim>
					<dim>32</dim>
					<dim>6</dim>
					<dim>6</dim>
				</port>
				<port id="4">
					<dim>1</dim>
					<dim>32</dim>
					<dim>6</dim>
					<dim>6</dim>
				</port>
				<port id="5">
					<dim>1</dim>
					<dim>32</dim>
					<dim>6</dim>
					<dim>6</dim>
				</port>
				<port id="6">
					<dim>1</dim>
					<dim>32</dim>
					<dim>6</dim>
					<dim>6</dim>
				</port>
				<port id="7">
					<dim>1</dim>
					<dim>32</dim>
					<dim>6</dim>
					<dim>6</dim>
				</port>
				<port id="8">
					<dim>1</dim>
					<dim>32</dim>
					<dim>6</dim>
					<dim>6</dim>
				</port>
				<port id="9">
					<dim>1</dim>
					<dim>32</dim>
					<dim>6</dim>
					<dim>6</dim>
				</port>
				<port id="10">
					<dim>1</dim>
					<dim>32</dim>
					<dim>6</dim>
					<dim>6</dim>
				</port>
				<port id="11">
					<dim>1</dim>
					<dim>32</dim>
					<dim>6</dim>
					<dim>6</dim>
				</port>
				<port id="12">
					<dim>1</dim>
					<dim>32</dim>
					<dim>6</dim>
					<dim>6</dim>
				</port>
				<port id="13">
					<dim>1</dim>
					<dim>32</dim>
					<dim>6</dim>
					<dim>6</dim>
				</port>
			</input>
			<output>
				<port id="14">
					<dim>1</dim>
					<dim>672</dim>
					<dim>6</dim>
					<dim>6</dim>
				</port>
			</output>
		</layer>
		<layer id="201" name="Mul1_19696/Fused_Mul_/FusedScaleShift_" precision="FP32" type="ScaleShift">
			<input>
				<port id="0">
					<dim>1</dim>
					<dim>672</dim>
					<dim>6</dim>
					<dim>6</dim>
				</port>
			</input>
			<output>
				<port id="3">
					<dim>1</dim>
					<dim>672</dim>
					<dim>6</dim>
					<dim>6</dim>
				</port>
			</output>
			<blobs>
				<weights offset="10661120" size="2688"/>
				<biases offset="10663808" size="2688"/>
			</blobs>
		</layer>
		<layer id="202" name="1253" precision="FP32" type="ReLU">
			<input>
				<port id="0">
					<dim>1</dim>
					<dim>672</dim>
					<dim>6</dim>
					<dim>6</dim>
				</port>
			</input>
			<output>
				<port id="1">
					<dim>1</dim>
					<dim>672</dim>
					<dim>6</dim>
					<dim>6</dim>
				</port>
			</output>
		</layer>
		<layer id="203" name="1254" precision="FP32" type="Convolution">
			<data dilations="1,1" group="1" kernel="1,1" output="128" pads_begin="0,0" pads_end="0,0" strides="1,1"/>
			<input>
				<port id="0">
					<dim>1</dim>
					<dim>672</dim>
					<dim>6</dim>
					<dim>6</dim>
				</port>
			</input>
			<output>
				<port id="3">
					<dim>1</dim>
					<dim>128</dim>
					<dim>6</dim>
					<dim>6</dim>
				</port>
			</output>
			<blobs>
				<weights offset="10666496" size="344064"/>
				<biases offset="11010560" size="512"/>
			</blobs>
		</layer>
		<layer id="204" name="1256" precision="FP32" type="ReLU">
			<input>
				<port id="0">
					<dim>1</dim>
					<dim>128</dim>
					<dim>6</dim>
					<dim>6</dim>
				</port>
			</input>
			<output>
				<port id="1">
					<dim>1</dim>
					<dim>128</dim>
					<dim>6</dim>
					<dim>6</dim>
				</port>
			</output>
		</layer>
		<layer id="205" name="1257" precision="FP32" type="Convolution">
			<data dilations="1,1" group="1" kernel="3,3" output="32" pads_begin="1,1" pads_end="1,1" strides="1,1"/>
			<input>
				<port id="0">
					<dim>1</dim>
					<dim>128</dim>
					<dim>6</dim>
					<dim>6</dim>
				</port>
			</input>
			<output>
				<port id="2">
					<dim>1</dim>
					<dim>32</dim>
					<dim>6</dim>
					<dim>6</dim>
				</port>
			</output>
			<blobs>
				<weights offset="11011072" size="147456"/>
			</blobs>
		</layer>
		<layer id="206" name="1258" precision="FP32" type="Concat">
			<data axis="1"/>
			<input>
				<port id="0">
					<dim>1</dim>
					<dim>256</dim>
					<dim>6</dim>
					<dim>6</dim>
				</port>
				<port id="1">
					<dim>1</dim>
					<dim>32</dim>
					<dim>6</dim>
					<dim>6</dim>
				</port>
				<port id="2">
					<dim>1</dim>
					<dim>32</dim>
					<dim>6</dim>
					<dim>6</dim>
				</port>
				<port id="3">
					<dim>1</dim>
					<dim>32</dim>
					<dim>6</dim>
					<dim>6</dim>
				</port>
				<port id="4">
					<dim>1</dim>
					<dim>32</dim>
					<dim>6</dim>
					<dim>6</dim>
				</port>
				<port id="5">
					<dim>1</dim>
					<dim>32</dim>
					<dim>6</dim>
					<dim>6</dim>
				</port>
				<port id="6">
					<dim>1</dim>
					<dim>32</dim>
					<dim>6</dim>
					<dim>6</dim>
				</port>
				<port id="7">
					<dim>1</dim>
					<dim>32</dim>
					<dim>6</dim>
					<dim>6</dim>
				</port>
				<port id="8">
					<dim>1</dim>
					<dim>32</dim>
					<dim>6</dim>
					<dim>6</dim>
				</port>
				<port id="9">
					<dim>1</dim>
					<dim>32</dim>
					<dim>6</dim>
					<dim>6</dim>
				</port>
				<port id="10">
					<dim>1</dim>
					<dim>32</dim>
					<dim>6</dim>
					<dim>6</dim>
				</port>
				<port id="11">
					<dim>1</dim>
					<dim>32</dim>
					<dim>6</dim>
					<dim>6</dim>
				</port>
				<port id="12">
					<dim>1</dim>
					<dim>32</dim>
					<dim>6</dim>
					<dim>6</dim>
				</port>
				<port id="13">
					<dim>1</dim>
					<dim>32</dim>
					<dim>6</dim>
					<dim>6</dim>
				</port>
				<port id="14">
					<dim>1</dim>
					<dim>32</dim>
					<dim>6</dim>
					<dim>6</dim>
				</port>
			</input>
			<output>
				<port id="15">
					<dim>1</dim>
					<dim>704</dim>
					<dim>6</dim>
					<dim>6</dim>
				</port>
			</output>
		</layer>
		<layer id="207" name="Mul1_20944/Fused_Mul_/FusedScaleShift_" precision="FP32" type="ScaleShift">
			<input>
				<port id="0">
					<dim>1</dim>
					<dim>704</dim>
					<dim>6</dim>
					<dim>6</dim>
				</port>
			</input>
			<output>
				<port id="3">
					<dim>1</dim>
					<dim>704</dim>
					<dim>6</dim>
					<dim>6</dim>
				</port>
			</output>
			<blobs>
				<weights offset="11158528" size="2816"/>
				<biases offset="11161344" size="2816"/>
			</blobs>
		</layer>
		<layer id="208" name="1260" precision="FP32" type="ReLU">
			<input>
				<port id="0">
					<dim>1</dim>
					<dim>704</dim>
					<dim>6</dim>
					<dim>6</dim>
				</port>
			</input>
			<output>
				<port id="1">
					<dim>1</dim>
					<dim>704</dim>
					<dim>6</dim>
					<dim>6</dim>
				</port>
			</output>
		</layer>
		<layer id="209" name="1261" precision="FP32" type="Convolution">
			<data dilations="1,1" group="1" kernel="1,1" output="128" pads_begin="0,0" pads_end="0,0" strides="1,1"/>
			<input>
				<port id="0">
					<dim>1</dim>
					<dim>704</dim>
					<dim>6</dim>
					<dim>6</dim>
				</port>
			</input>
			<output>
				<port id="3">
					<dim>1</dim>
					<dim>128</dim>
					<dim>6</dim>
					<dim>6</dim>
				</port>
			</output>
			<blobs>
				<weights offset="11164160" size="360448"/>
				<biases offset="11524608" size="512"/>
			</blobs>
		</layer>
		<layer id="210" name="1263" precision="FP32" type="ReLU">
			<input>
				<port id="0">
					<dim>1</dim>
					<dim>128</dim>
					<dim>6</dim>
					<dim>6</dim>
				</port>
			</input>
			<output>
				<port id="1">
					<dim>1</dim>
					<dim>128</dim>
					<dim>6</dim>
					<dim>6</dim>
				</port>
			</output>
		</layer>
		<layer id="211" name="1264" precision="FP32" type="Convolution">
			<data dilations="1,1" group="1" kernel="3,3" output="32" pads_begin="1,1" pads_end="1,1" strides="1,1"/>
			<input>
				<port id="0">
					<dim>1</dim>
					<dim>128</dim>
					<dim>6</dim>
					<dim>6</dim>
				</port>
			</input>
			<output>
				<port id="2">
					<dim>1</dim>
					<dim>32</dim>
					<dim>6</dim>
					<dim>6</dim>
				</port>
			</output>
			<blobs>
				<weights offset="11525120" size="147456"/>
			</blobs>
		</layer>
		<layer id="212" name="1265" precision="FP32" type="Concat">
			<data axis="1"/>
			<input>
				<port id="0">
					<dim>1</dim>
					<dim>256</dim>
					<dim>6</dim>
					<dim>6</dim>
				</port>
				<port id="1">
					<dim>1</dim>
					<dim>32</dim>
					<dim>6</dim>
					<dim>6</dim>
				</port>
				<port id="2">
					<dim>1</dim>
					<dim>32</dim>
					<dim>6</dim>
					<dim>6</dim>
				</port>
				<port id="3">
					<dim>1</dim>
					<dim>32</dim>
					<dim>6</dim>
					<dim>6</dim>
				</port>
				<port id="4">
					<dim>1</dim>
					<dim>32</dim>
					<dim>6</dim>
					<dim>6</dim>
				</port>
				<port id="5">
					<dim>1</dim>
					<dim>32</dim>
					<dim>6</dim>
					<dim>6</dim>
				</port>
				<port id="6">
					<dim>1</dim>
					<dim>32</dim>
					<dim>6</dim>
					<dim>6</dim>
				</port>
				<port id="7">
					<dim>1</dim>
					<dim>32</dim>
					<dim>6</dim>
					<dim>6</dim>
				</port>
				<port id="8">
					<dim>1</dim>
					<dim>32</dim>
					<dim>6</dim>
					<dim>6</dim>
				</port>
				<port id="9">
					<dim>1</dim>
					<dim>32</dim>
					<dim>6</dim>
					<dim>6</dim>
				</port>
				<port id="10">
					<dim>1</dim>
					<dim>32</dim>
					<dim>6</dim>
					<dim>6</dim>
				</port>
				<port id="11">
					<dim>1</dim>
					<dim>32</dim>
					<dim>6</dim>
					<dim>6</dim>
				</port>
				<port id="12">
					<dim>1</dim>
					<dim>32</dim>
					<dim>6</dim>
					<dim>6</dim>
				</port>
				<port id="13">
					<dim>1</dim>
					<dim>32</dim>
					<dim>6</dim>
					<dim>6</dim>
				</port>
				<port id="14">
					<dim>1</dim>
					<dim>32</dim>
					<dim>6</dim>
					<dim>6</dim>
				</port>
				<port id="15">
					<dim>1</dim>
					<dim>32</dim>
					<dim>6</dim>
					<dim>6</dim>
				</port>
			</input>
			<output>
				<port id="16">
					<dim>1</dim>
					<dim>736</dim>
					<dim>6</dim>
					<dim>6</dim>
				</port>
			</output>
		</layer>
		<layer id="213" name="Mul1_20980/Fused_Mul_/FusedScaleShift_" precision="FP32" type="ScaleShift">
			<input>
				<port id="0">
					<dim>1</dim>
					<dim>736</dim>
					<dim>6</dim>
					<dim>6</dim>
				</port>
			</input>
			<output>
				<port id="3">
					<dim>1</dim>
					<dim>736</dim>
					<dim>6</dim>
					<dim>6</dim>
				</port>
			</output>
			<blobs>
				<weights offset="11672576" size="2944"/>
				<biases offset="11675520" size="2944"/>
			</blobs>
		</layer>
		<layer id="214" name="1267" precision="FP32" type="ReLU">
			<input>
				<port id="0">
					<dim>1</dim>
					<dim>736</dim>
					<dim>6</dim>
					<dim>6</dim>
				</port>
			</input>
			<output>
				<port id="1">
					<dim>1</dim>
					<dim>736</dim>
					<dim>6</dim>
					<dim>6</dim>
				</port>
			</output>
		</layer>
		<layer id="215" name="1268" precision="FP32" type="Convolution">
			<data dilations="1,1" group="1" kernel="1,1" output="128" pads_begin="0,0" pads_end="0,0" strides="1,1"/>
			<input>
				<port id="0">
					<dim>1</dim>
					<dim>736</dim>
					<dim>6</dim>
					<dim>6</dim>
				</port>
			</input>
			<output>
				<port id="3">
					<dim>1</dim>
					<dim>128</dim>
					<dim>6</dim>
					<dim>6</dim>
				</port>
			</output>
			<blobs>
				<weights offset="11678464" size="376832"/>
				<biases offset="12055296" size="512"/>
			</blobs>
		</layer>
		<layer id="216" name="1270" precision="FP32" type="ReLU">
			<input>
				<port id="0">
					<dim>1</dim>
					<dim>128</dim>
					<dim>6</dim>
					<dim>6</dim>
				</port>
			</input>
			<output>
				<port id="1">
					<dim>1</dim>
					<dim>128</dim>
					<dim>6</dim>
					<dim>6</dim>
				</port>
			</output>
		</layer>
		<layer id="217" name="1271" precision="FP32" type="Convolution">
			<data dilations="1,1" group="1" kernel="3,3" output="32" pads_begin="1,1" pads_end="1,1" strides="1,1"/>
			<input>
				<port id="0">
					<dim>1</dim>
					<dim>128</dim>
					<dim>6</dim>
					<dim>6</dim>
				</port>
			</input>
			<output>
				<port id="2">
					<dim>1</dim>
					<dim>32</dim>
					<dim>6</dim>
					<dim>6</dim>
				</port>
			</output>
			<blobs>
				<weights offset="12055808" size="147456"/>
			</blobs>
		</layer>
		<layer id="218" name="1272" precision="FP32" type="Concat">
			<data axis="1"/>
			<input>
				<port id="0">
					<dim>1</dim>
					<dim>256</dim>
					<dim>6</dim>
					<dim>6</dim>
				</port>
				<port id="1">
					<dim>1</dim>
					<dim>32</dim>
					<dim>6</dim>
					<dim>6</dim>
				</port>
				<port id="2">
					<dim>1</dim>
					<dim>32</dim>
					<dim>6</dim>
					<dim>6</dim>
				</port>
				<port id="3">
					<dim>1</dim>
					<dim>32</dim>
					<dim>6</dim>
					<dim>6</dim>
				</port>
				<port id="4">
					<dim>1</dim>
					<dim>32</dim>
					<dim>6</dim>
					<dim>6</dim>
				</port>
				<port id="5">
					<dim>1</dim>
					<dim>32</dim>
					<dim>6</dim>
					<dim>6</dim>
				</port>
				<port id="6">
					<dim>1</dim>
					<dim>32</dim>
					<dim>6</dim>
					<dim>6</dim>
				</port>
				<port id="7">
					<dim>1</dim>
					<dim>32</dim>
					<dim>6</dim>
					<dim>6</dim>
				</port>
				<port id="8">
					<dim>1</dim>
					<dim>32</dim>
					<dim>6</dim>
					<dim>6</dim>
				</port>
				<port id="9">
					<dim>1</dim>
					<dim>32</dim>
					<dim>6</dim>
					<dim>6</dim>
				</port>
				<port id="10">
					<dim>1</dim>
					<dim>32</dim>
					<dim>6</dim>
					<dim>6</dim>
				</port>
				<port id="11">
					<dim>1</dim>
					<dim>32</dim>
					<dim>6</dim>
					<dim>6</dim>
				</port>
				<port id="12">
					<dim>1</dim>
					<dim>32</dim>
					<dim>6</dim>
					<dim>6</dim>
				</port>
				<port id="13">
					<dim>1</dim>
					<dim>32</dim>
					<dim>6</dim>
					<dim>6</dim>
				</port>
				<port id="14">
					<dim>1</dim>
					<dim>32</dim>
					<dim>6</dim>
					<dim>6</dim>
				</port>
				<port id="15">
					<dim>1</dim>
					<dim>32</dim>
					<dim>6</dim>
					<dim>6</dim>
				</port>
				<port id="16">
					<dim>1</dim>
					<dim>32</dim>
					<dim>6</dim>
					<dim>6</dim>
				</port>
			</input>
			<output>
				<port id="17">
					<dim>1</dim>
					<dim>768</dim>
					<dim>6</dim>
					<dim>6</dim>
				</port>
			</output>
		</layer>
		<layer id="219" name="Mul1_20968/Fused_Mul_/FusedScaleShift_" precision="FP32" type="ScaleShift">
			<input>
				<port id="0">
					<dim>1</dim>
					<dim>768</dim>
					<dim>6</dim>
					<dim>6</dim>
				</port>
			</input>
			<output>
				<port id="3">
					<dim>1</dim>
					<dim>768</dim>
					<dim>6</dim>
					<dim>6</dim>
				</port>
			</output>
			<blobs>
				<weights offset="12203264" size="3072"/>
				<biases offset="12206336" size="3072"/>
			</blobs>
		</layer>
		<layer id="220" name="1274" precision="FP32" type="ReLU">
			<input>
				<port id="0">
					<dim>1</dim>
					<dim>768</dim>
					<dim>6</dim>
					<dim>6</dim>
				</port>
			</input>
			<output>
				<port id="1">
					<dim>1</dim>
					<dim>768</dim>
					<dim>6</dim>
					<dim>6</dim>
				</port>
			</output>
		</layer>
		<layer id="221" name="1275" precision="FP32" type="Convolution">
			<data dilations="1,1" group="1" kernel="1,1" output="128" pads_begin="0,0" pads_end="0,0" strides="1,1"/>
			<input>
				<port id="0">
					<dim>1</dim>
					<dim>768</dim>
					<dim>6</dim>
					<dim>6</dim>
				</port>
			</input>
			<output>
				<port id="3">
					<dim>1</dim>
					<dim>128</dim>
					<dim>6</dim>
					<dim>6</dim>
				</port>
			</output>
			<blobs>
				<weights offset="12209408" size="393216"/>
				<biases offset="12602624" size="512"/>
			</blobs>
		</layer>
		<layer id="222" name="1277" precision="FP32" type="ReLU">
			<input>
				<port id="0">
					<dim>1</dim>
					<dim>128</dim>
					<dim>6</dim>
					<dim>6</dim>
				</port>
			</input>
			<output>
				<port id="1">
					<dim>1</dim>
					<dim>128</dim>
					<dim>6</dim>
					<dim>6</dim>
				</port>
			</output>
		</layer>
		<layer id="223" name="1278" precision="FP32" type="Convolution">
			<data dilations="1,1" group="1" kernel="3,3" output="32" pads_begin="1,1" pads_end="1,1" strides="1,1"/>
			<input>
				<port id="0">
					<dim>1</dim>
					<dim>128</dim>
					<dim>6</dim>
					<dim>6</dim>
				</port>
			</input>
			<output>
				<port id="2">
					<dim>1</dim>
					<dim>32</dim>
					<dim>6</dim>
					<dim>6</dim>
				</port>
			</output>
			<blobs>
				<weights offset="12603136" size="147456"/>
			</blobs>
		</layer>
		<layer id="224" name="1279" precision="FP32" type="Concat">
			<data axis="1"/>
			<input>
				<port id="0">
					<dim>1</dim>
					<dim>256</dim>
					<dim>6</dim>
					<dim>6</dim>
				</port>
				<port id="1">
					<dim>1</dim>
					<dim>32</dim>
					<dim>6</dim>
					<dim>6</dim>
				</port>
				<port id="2">
					<dim>1</dim>
					<dim>32</dim>
					<dim>6</dim>
					<dim>6</dim>
				</port>
				<port id="3">
					<dim>1</dim>
					<dim>32</dim>
					<dim>6</dim>
					<dim>6</dim>
				</port>
				<port id="4">
					<dim>1</dim>
					<dim>32</dim>
					<dim>6</dim>
					<dim>6</dim>
				</port>
				<port id="5">
					<dim>1</dim>
					<dim>32</dim>
					<dim>6</dim>
					<dim>6</dim>
				</port>
				<port id="6">
					<dim>1</dim>
					<dim>32</dim>
					<dim>6</dim>
					<dim>6</dim>
				</port>
				<port id="7">
					<dim>1</dim>
					<dim>32</dim>
					<dim>6</dim>
					<dim>6</dim>
				</port>
				<port id="8">
					<dim>1</dim>
					<dim>32</dim>
					<dim>6</dim>
					<dim>6</dim>
				</port>
				<port id="9">
					<dim>1</dim>
					<dim>32</dim>
					<dim>6</dim>
					<dim>6</dim>
				</port>
				<port id="10">
					<dim>1</dim>
					<dim>32</dim>
					<dim>6</dim>
					<dim>6</dim>
				</port>
				<port id="11">
					<dim>1</dim>
					<dim>32</dim>
					<dim>6</dim>
					<dim>6</dim>
				</port>
				<port id="12">
					<dim>1</dim>
					<dim>32</dim>
					<dim>6</dim>
					<dim>6</dim>
				</port>
				<port id="13">
					<dim>1</dim>
					<dim>32</dim>
					<dim>6</dim>
					<dim>6</dim>
				</port>
				<port id="14">
					<dim>1</dim>
					<dim>32</dim>
					<dim>6</dim>
					<dim>6</dim>
				</port>
				<port id="15">
					<dim>1</dim>
					<dim>32</dim>
					<dim>6</dim>
					<dim>6</dim>
				</port>
				<port id="16">
					<dim>1</dim>
					<dim>32</dim>
					<dim>6</dim>
					<dim>6</dim>
				</port>
				<port id="17">
					<dim>1</dim>
					<dim>32</dim>
					<dim>6</dim>
					<dim>6</dim>
				</port>
			</input>
			<output>
				<port id="18">
					<dim>1</dim>
					<dim>800</dim>
					<dim>6</dim>
					<dim>6</dim>
				</port>
			</output>
		</layer>
		<layer id="225" name="Mul1_19216/Fused_Mul_/FusedScaleShift_" precision="FP32" type="ScaleShift">
			<input>
				<port id="0">
					<dim>1</dim>
					<dim>800</dim>
					<dim>6</dim>
					<dim>6</dim>
				</port>
			</input>
			<output>
				<port id="3">
					<dim>1</dim>
					<dim>800</dim>
					<dim>6</dim>
					<dim>6</dim>
				</port>
			</output>
			<blobs>
				<weights offset="12750592" size="3200"/>
				<biases offset="12753792" size="3200"/>
			</blobs>
		</layer>
		<layer id="226" name="1281" precision="FP32" type="ReLU">
			<input>
				<port id="0">
					<dim>1</dim>
					<dim>800</dim>
					<dim>6</dim>
					<dim>6</dim>
				</port>
			</input>
			<output>
				<port id="1">
					<dim>1</dim>
					<dim>800</dim>
					<dim>6</dim>
					<dim>6</dim>
				</port>
			</output>
		</layer>
		<layer id="227" name="1282" precision="FP32" type="Convolution">
			<data dilations="1,1" group="1" kernel="1,1" output="128" pads_begin="0,0" pads_end="0,0" strides="1,1"/>
			<input>
				<port id="0">
					<dim>1</dim>
					<dim>800</dim>
					<dim>6</dim>
					<dim>6</dim>
				</port>
			</input>
			<output>
				<port id="3">
					<dim>1</dim>
					<dim>128</dim>
					<dim>6</dim>
					<dim>6</dim>
				</port>
			</output>
			<blobs>
				<weights offset="12756992" size="409600"/>
				<biases offset="13166592" size="512"/>
			</blobs>
		</layer>
		<layer id="228" name="1284" precision="FP32" type="ReLU">
			<input>
				<port id="0">
					<dim>1</dim>
					<dim>128</dim>
					<dim>6</dim>
					<dim>6</dim>
				</port>
			</input>
			<output>
				<port id="1">
					<dim>1</dim>
					<dim>128</dim>
					<dim>6</dim>
					<dim>6</dim>
				</port>
			</output>
		</layer>
		<layer id="229" name="1285" precision="FP32" type="Convolution">
			<data dilations="1,1" group="1" kernel="3,3" output="32" pads_begin="1,1" pads_end="1,1" strides="1,1"/>
			<input>
				<port id="0">
					<dim>1</dim>
					<dim>128</dim>
					<dim>6</dim>
					<dim>6</dim>
				</port>
			</input>
			<output>
				<port id="2">
					<dim>1</dim>
					<dim>32</dim>
					<dim>6</dim>
					<dim>6</dim>
				</port>
			</output>
			<blobs>
				<weights offset="13167104" size="147456"/>
			</blobs>
		</layer>
		<layer id="230" name="1286" precision="FP32" type="Concat">
			<data axis="1"/>
			<input>
				<port id="0">
					<dim>1</dim>
					<dim>256</dim>
					<dim>6</dim>
					<dim>6</dim>
				</port>
				<port id="1">
					<dim>1</dim>
					<dim>32</dim>
					<dim>6</dim>
					<dim>6</dim>
				</port>
				<port id="2">
					<dim>1</dim>
					<dim>32</dim>
					<dim>6</dim>
					<dim>6</dim>
				</port>
				<port id="3">
					<dim>1</dim>
					<dim>32</dim>
					<dim>6</dim>
					<dim>6</dim>
				</port>
				<port id="4">
					<dim>1</dim>
					<dim>32</dim>
					<dim>6</dim>
					<dim>6</dim>
				</port>
				<port id="5">
					<dim>1</dim>
					<dim>32</dim>
					<dim>6</dim>
					<dim>6</dim>
				</port>
				<port id="6">
					<dim>1</dim>
					<dim>32</dim>
					<dim>6</dim>
					<dim>6</dim>
				</port>
				<port id="7">
					<dim>1</dim>
					<dim>32</dim>
					<dim>6</dim>
					<dim>6</dim>
				</port>
				<port id="8">
					<dim>1</dim>
					<dim>32</dim>
					<dim>6</dim>
					<dim>6</dim>
				</port>
				<port id="9">
					<dim>1</dim>
					<dim>32</dim>
					<dim>6</dim>
					<dim>6</dim>
				</port>
				<port id="10">
					<dim>1</dim>
					<dim>32</dim>
					<dim>6</dim>
					<dim>6</dim>
				</port>
				<port id="11">
					<dim>1</dim>
					<dim>32</dim>
					<dim>6</dim>
					<dim>6</dim>
				</port>
				<port id="12">
					<dim>1</dim>
					<dim>32</dim>
					<dim>6</dim>
					<dim>6</dim>
				</port>
				<port id="13">
					<dim>1</dim>
					<dim>32</dim>
					<dim>6</dim>
					<dim>6</dim>
				</port>
				<port id="14">
					<dim>1</dim>
					<dim>32</dim>
					<dim>6</dim>
					<dim>6</dim>
				</port>
				<port id="15">
					<dim>1</dim>
					<dim>32</dim>
					<dim>6</dim>
					<dim>6</dim>
				</port>
				<port id="16">
					<dim>1</dim>
					<dim>32</dim>
					<dim>6</dim>
					<dim>6</dim>
				</port>
				<port id="17">
					<dim>1</dim>
					<dim>32</dim>
					<dim>6</dim>
					<dim>6</dim>
				</port>
				<port id="18">
					<dim>1</dim>
					<dim>32</dim>
					<dim>6</dim>
					<dim>6</dim>
				</port>
			</input>
			<output>
				<port id="19">
					<dim>1</dim>
					<dim>832</dim>
					<dim>6</dim>
					<dim>6</dim>
				</port>
			</output>
		</layer>
		<layer id="231" name="Mul1_20296/Fused_Mul_/FusedScaleShift_" precision="FP32" type="ScaleShift">
			<input>
				<port id="0">
					<dim>1</dim>
					<dim>832</dim>
					<dim>6</dim>
					<dim>6</dim>
				</port>
			</input>
			<output>
				<port id="3">
					<dim>1</dim>
					<dim>832</dim>
					<dim>6</dim>
					<dim>6</dim>
				</port>
			</output>
			<blobs>
				<weights offset="13314560" size="3328"/>
				<biases offset="13317888" size="3328"/>
			</blobs>
		</layer>
		<layer id="232" name="1288" precision="FP32" type="ReLU">
			<input>
				<port id="0">
					<dim>1</dim>
					<dim>832</dim>
					<dim>6</dim>
					<dim>6</dim>
				</port>
			</input>
			<output>
				<port id="1">
					<dim>1</dim>
					<dim>832</dim>
					<dim>6</dim>
					<dim>6</dim>
				</port>
			</output>
		</layer>
		<layer id="233" name="1289" precision="FP32" type="Convolution">
			<data dilations="1,1" group="1" kernel="1,1" output="128" pads_begin="0,0" pads_end="0,0" strides="1,1"/>
			<input>
				<port id="0">
					<dim>1</dim>
					<dim>832</dim>
					<dim>6</dim>
					<dim>6</dim>
				</port>
			</input>
			<output>
				<port id="3">
					<dim>1</dim>
					<dim>128</dim>
					<dim>6</dim>
					<dim>6</dim>
				</port>
			</output>
			<blobs>
				<weights offset="13321216" size="425984"/>
				<biases offset="13747200" size="512"/>
			</blobs>
		</layer>
		<layer id="234" name="1291" precision="FP32" type="ReLU">
			<input>
				<port id="0">
					<dim>1</dim>
					<dim>128</dim>
					<dim>6</dim>
					<dim>6</dim>
				</port>
			</input>
			<output>
				<port id="1">
					<dim>1</dim>
					<dim>128</dim>
					<dim>6</dim>
					<dim>6</dim>
				</port>
			</output>
		</layer>
		<layer id="235" name="1292" precision="FP32" type="Convolution">
			<data dilations="1,1" group="1" kernel="3,3" output="32" pads_begin="1,1" pads_end="1,1" strides="1,1"/>
			<input>
				<port id="0">
					<dim>1</dim>
					<dim>128</dim>
					<dim>6</dim>
					<dim>6</dim>
				</port>
			</input>
			<output>
				<port id="2">
					<dim>1</dim>
					<dim>32</dim>
					<dim>6</dim>
					<dim>6</dim>
				</port>
			</output>
			<blobs>
				<weights offset="13747712" size="147456"/>
			</blobs>
		</layer>
		<layer id="236" name="1293" precision="FP32" type="Concat">
			<data axis="1"/>
			<input>
				<port id="0">
					<dim>1</dim>
					<dim>256</dim>
					<dim>6</dim>
					<dim>6</dim>
				</port>
				<port id="1">
					<dim>1</dim>
					<dim>32</dim>
					<dim>6</dim>
					<dim>6</dim>
				</port>
				<port id="2">
					<dim>1</dim>
					<dim>32</dim>
					<dim>6</dim>
					<dim>6</dim>
				</port>
				<port id="3">
					<dim>1</dim>
					<dim>32</dim>
					<dim>6</dim>
					<dim>6</dim>
				</port>
				<port id="4">
					<dim>1</dim>
					<dim>32</dim>
					<dim>6</dim>
					<dim>6</dim>
				</port>
				<port id="5">
					<dim>1</dim>
					<dim>32</dim>
					<dim>6</dim>
					<dim>6</dim>
				</port>
				<port id="6">
					<dim>1</dim>
					<dim>32</dim>
					<dim>6</dim>
					<dim>6</dim>
				</port>
				<port id="7">
					<dim>1</dim>
					<dim>32</dim>
					<dim>6</dim>
					<dim>6</dim>
				</port>
				<port id="8">
					<dim>1</dim>
					<dim>32</dim>
					<dim>6</dim>
					<dim>6</dim>
				</port>
				<port id="9">
					<dim>1</dim>
					<dim>32</dim>
					<dim>6</dim>
					<dim>6</dim>
				</port>
				<port id="10">
					<dim>1</dim>
					<dim>32</dim>
					<dim>6</dim>
					<dim>6</dim>
				</port>
				<port id="11">
					<dim>1</dim>
					<dim>32</dim>
					<dim>6</dim>
					<dim>6</dim>
				</port>
				<port id="12">
					<dim>1</dim>
					<dim>32</dim>
					<dim>6</dim>
					<dim>6</dim>
				</port>
				<port id="13">
					<dim>1</dim>
					<dim>32</dim>
					<dim>6</dim>
					<dim>6</dim>
				</port>
				<port id="14">
					<dim>1</dim>
					<dim>32</dim>
					<dim>6</dim>
					<dim>6</dim>
				</port>
				<port id="15">
					<dim>1</dim>
					<dim>32</dim>
					<dim>6</dim>
					<dim>6</dim>
				</port>
				<port id="16">
					<dim>1</dim>
					<dim>32</dim>
					<dim>6</dim>
					<dim>6</dim>
				</port>
				<port id="17">
					<dim>1</dim>
					<dim>32</dim>
					<dim>6</dim>
					<dim>6</dim>
				</port>
				<port id="18">
					<dim>1</dim>
					<dim>32</dim>
					<dim>6</dim>
					<dim>6</dim>
				</port>
				<port id="19">
					<dim>1</dim>
					<dim>32</dim>
					<dim>6</dim>
					<dim>6</dim>
				</port>
			</input>
			<output>
				<port id="20">
					<dim>1</dim>
					<dim>864</dim>
					<dim>6</dim>
					<dim>6</dim>
				</port>
			</output>
		</layer>
		<layer id="237" name="Mul1_20896/Fused_Mul_/FusedScaleShift_" precision="FP32" type="ScaleShift">
			<input>
				<port id="0">
					<dim>1</dim>
					<dim>864</dim>
					<dim>6</dim>
					<dim>6</dim>
				</port>
			</input>
			<output>
				<port id="3">
					<dim>1</dim>
					<dim>864</dim>
					<dim>6</dim>
					<dim>6</dim>
				</port>
			</output>
			<blobs>
				<weights offset="13895168" size="3456"/>
				<biases offset="13898624" size="3456"/>
			</blobs>
		</layer>
		<layer id="238" name="1295" precision="FP32" type="ReLU">
			<input>
				<port id="0">
					<dim>1</dim>
					<dim>864</dim>
					<dim>6</dim>
					<dim>6</dim>
				</port>
			</input>
			<output>
				<port id="1">
					<dim>1</dim>
					<dim>864</dim>
					<dim>6</dim>
					<dim>6</dim>
				</port>
			</output>
		</layer>
		<layer id="239" name="1296" precision="FP32" type="Convolution">
			<data dilations="1,1" group="1" kernel="1,1" output="128" pads_begin="0,0" pads_end="0,0" strides="1,1"/>
			<input>
				<port id="0">
					<dim>1</dim>
					<dim>864</dim>
					<dim>6</dim>
					<dim>6</dim>
				</port>
			</input>
			<output>
				<port id="3">
					<dim>1</dim>
					<dim>128</dim>
					<dim>6</dim>
					<dim>6</dim>
				</port>
			</output>
			<blobs>
				<weights offset="13902080" size="442368"/>
				<biases offset="14344448" size="512"/>
			</blobs>
		</layer>
		<layer id="240" name="1298" precision="FP32" type="ReLU">
			<input>
				<port id="0">
					<dim>1</dim>
					<dim>128</dim>
					<dim>6</dim>
					<dim>6</dim>
				</port>
			</input>
			<output>
				<port id="1">
					<dim>1</dim>
					<dim>128</dim>
					<dim>6</dim>
					<dim>6</dim>
				</port>
			</output>
		</layer>
		<layer id="241" name="1299" precision="FP32" type="Convolution">
			<data dilations="1,1" group="1" kernel="3,3" output="32" pads_begin="1,1" pads_end="1,1" strides="1,1"/>
			<input>
				<port id="0">
					<dim>1</dim>
					<dim>128</dim>
					<dim>6</dim>
					<dim>6</dim>
				</port>
			</input>
			<output>
				<port id="2">
					<dim>1</dim>
					<dim>32</dim>
					<dim>6</dim>
					<dim>6</dim>
				</port>
			</output>
			<blobs>
				<weights offset="14344960" size="147456"/>
			</blobs>
		</layer>
		<layer id="242" name="1300" precision="FP32" type="Concat">
			<data axis="1"/>
			<input>
				<port id="0">
					<dim>1</dim>
					<dim>256</dim>
					<dim>6</dim>
					<dim>6</dim>
				</port>
				<port id="1">
					<dim>1</dim>
					<dim>32</dim>
					<dim>6</dim>
					<dim>6</dim>
				</port>
				<port id="2">
					<dim>1</dim>
					<dim>32</dim>
					<dim>6</dim>
					<dim>6</dim>
				</port>
				<port id="3">
					<dim>1</dim>
					<dim>32</dim>
					<dim>6</dim>
					<dim>6</dim>
				</port>
				<port id="4">
					<dim>1</dim>
					<dim>32</dim>
					<dim>6</dim>
					<dim>6</dim>
				</port>
				<port id="5">
					<dim>1</dim>
					<dim>32</dim>
					<dim>6</dim>
					<dim>6</dim>
				</port>
				<port id="6">
					<dim>1</dim>
					<dim>32</dim>
					<dim>6</dim>
					<dim>6</dim>
				</port>
				<port id="7">
					<dim>1</dim>
					<dim>32</dim>
					<dim>6</dim>
					<dim>6</dim>
				</port>
				<port id="8">
					<dim>1</dim>
					<dim>32</dim>
					<dim>6</dim>
					<dim>6</dim>
				</port>
				<port id="9">
					<dim>1</dim>
					<dim>32</dim>
					<dim>6</dim>
					<dim>6</dim>
				</port>
				<port id="10">
					<dim>1</dim>
					<dim>32</dim>
					<dim>6</dim>
					<dim>6</dim>
				</port>
				<port id="11">
					<dim>1</dim>
					<dim>32</dim>
					<dim>6</dim>
					<dim>6</dim>
				</port>
				<port id="12">
					<dim>1</dim>
					<dim>32</dim>
					<dim>6</dim>
					<dim>6</dim>
				</port>
				<port id="13">
					<dim>1</dim>
					<dim>32</dim>
					<dim>6</dim>
					<dim>6</dim>
				</port>
				<port id="14">
					<dim>1</dim>
					<dim>32</dim>
					<dim>6</dim>
					<dim>6</dim>
				</port>
				<port id="15">
					<dim>1</dim>
					<dim>32</dim>
					<dim>6</dim>
					<dim>6</dim>
				</port>
				<port id="16">
					<dim>1</dim>
					<dim>32</dim>
					<dim>6</dim>
					<dim>6</dim>
				</port>
				<port id="17">
					<dim>1</dim>
					<dim>32</dim>
					<dim>6</dim>
					<dim>6</dim>
				</port>
				<port id="18">
					<dim>1</dim>
					<dim>32</dim>
					<dim>6</dim>
					<dim>6</dim>
				</port>
				<port id="19">
					<dim>1</dim>
					<dim>32</dim>
					<dim>6</dim>
					<dim>6</dim>
				</port>
				<port id="20">
					<dim>1</dim>
					<dim>32</dim>
					<dim>6</dim>
					<dim>6</dim>
				</port>
			</input>
			<output>
				<port id="21">
					<dim>1</dim>
					<dim>896</dim>
					<dim>6</dim>
					<dim>6</dim>
				</port>
			</output>
		</layer>
		<layer id="243" name="Mul1_20380/Fused_Mul_/FusedScaleShift_" precision="FP32" type="ScaleShift">
			<input>
				<port id="0">
					<dim>1</dim>
					<dim>896</dim>
					<dim>6</dim>
					<dim>6</dim>
				</port>
			</input>
			<output>
				<port id="3">
					<dim>1</dim>
					<dim>896</dim>
					<dim>6</dim>
					<dim>6</dim>
				</port>
			</output>
			<blobs>
				<weights offset="14492416" size="3584"/>
				<biases offset="14496000" size="3584"/>
			</blobs>
		</layer>
		<layer id="244" name="1302" precision="FP32" type="ReLU">
			<input>
				<port id="0">
					<dim>1</dim>
					<dim>896</dim>
					<dim>6</dim>
					<dim>6</dim>
				</port>
			</input>
			<output>
				<port id="1">
					<dim>1</dim>
					<dim>896</dim>
					<dim>6</dim>
					<dim>6</dim>
				</port>
			</output>
		</layer>
		<layer id="245" name="1303" precision="FP32" type="Convolution">
			<data dilations="1,1" group="1" kernel="1,1" output="128" pads_begin="0,0" pads_end="0,0" strides="1,1"/>
			<input>
				<port id="0">
					<dim>1</dim>
					<dim>896</dim>
					<dim>6</dim>
					<dim>6</dim>
				</port>
			</input>
			<output>
				<port id="3">
					<dim>1</dim>
					<dim>128</dim>
					<dim>6</dim>
					<dim>6</dim>
				</port>
			</output>
			<blobs>
				<weights offset="14499584" size="458752"/>
				<biases offset="14958336" size="512"/>
			</blobs>
		</layer>
		<layer id="246" name="1305" precision="FP32" type="ReLU">
			<input>
				<port id="0">
					<dim>1</dim>
					<dim>128</dim>
					<dim>6</dim>
					<dim>6</dim>
				</port>
			</input>
			<output>
				<port id="1">
					<dim>1</dim>
					<dim>128</dim>
					<dim>6</dim>
					<dim>6</dim>
				</port>
			</output>
		</layer>
		<layer id="247" name="1306" precision="FP32" type="Convolution">
			<data dilations="1,1" group="1" kernel="3,3" output="32" pads_begin="1,1" pads_end="1,1" strides="1,1"/>
			<input>
				<port id="0">
					<dim>1</dim>
					<dim>128</dim>
					<dim>6</dim>
					<dim>6</dim>
				</port>
			</input>
			<output>
				<port id="2">
					<dim>1</dim>
					<dim>32</dim>
					<dim>6</dim>
					<dim>6</dim>
				</port>
			</output>
			<blobs>
				<weights offset="14958848" size="147456"/>
			</blobs>
		</layer>
		<layer id="248" name="1307" precision="FP32" type="Concat">
			<data axis="1"/>
			<input>
				<port id="0">
					<dim>1</dim>
					<dim>256</dim>
					<dim>6</dim>
					<dim>6</dim>
				</port>
				<port id="1">
					<dim>1</dim>
					<dim>32</dim>
					<dim>6</dim>
					<dim>6</dim>
				</port>
				<port id="2">
					<dim>1</dim>
					<dim>32</dim>
					<dim>6</dim>
					<dim>6</dim>
				</port>
				<port id="3">
					<dim>1</dim>
					<dim>32</dim>
					<dim>6</dim>
					<dim>6</dim>
				</port>
				<port id="4">
					<dim>1</dim>
					<dim>32</dim>
					<dim>6</dim>
					<dim>6</dim>
				</port>
				<port id="5">
					<dim>1</dim>
					<dim>32</dim>
					<dim>6</dim>
					<dim>6</dim>
				</port>
				<port id="6">
					<dim>1</dim>
					<dim>32</dim>
					<dim>6</dim>
					<dim>6</dim>
				</port>
				<port id="7">
					<dim>1</dim>
					<dim>32</dim>
					<dim>6</dim>
					<dim>6</dim>
				</port>
				<port id="8">
					<dim>1</dim>
					<dim>32</dim>
					<dim>6</dim>
					<dim>6</dim>
				</port>
				<port id="9">
					<dim>1</dim>
					<dim>32</dim>
					<dim>6</dim>
					<dim>6</dim>
				</port>
				<port id="10">
					<dim>1</dim>
					<dim>32</dim>
					<dim>6</dim>
					<dim>6</dim>
				</port>
				<port id="11">
					<dim>1</dim>
					<dim>32</dim>
					<dim>6</dim>
					<dim>6</dim>
				</port>
				<port id="12">
					<dim>1</dim>
					<dim>32</dim>
					<dim>6</dim>
					<dim>6</dim>
				</port>
				<port id="13">
					<dim>1</dim>
					<dim>32</dim>
					<dim>6</dim>
					<dim>6</dim>
				</port>
				<port id="14">
					<dim>1</dim>
					<dim>32</dim>
					<dim>6</dim>
					<dim>6</dim>
				</port>
				<port id="15">
					<dim>1</dim>
					<dim>32</dim>
					<dim>6</dim>
					<dim>6</dim>
				</port>
				<port id="16">
					<dim>1</dim>
					<dim>32</dim>
					<dim>6</dim>
					<dim>6</dim>
				</port>
				<port id="17">
					<dim>1</dim>
					<dim>32</dim>
					<dim>6</dim>
					<dim>6</dim>
				</port>
				<port id="18">
					<dim>1</dim>
					<dim>32</dim>
					<dim>6</dim>
					<dim>6</dim>
				</port>
				<port id="19">
					<dim>1</dim>
					<dim>32</dim>
					<dim>6</dim>
					<dim>6</dim>
				</port>
				<port id="20">
					<dim>1</dim>
					<dim>32</dim>
					<dim>6</dim>
					<dim>6</dim>
				</port>
				<port id="21">
					<dim>1</dim>
					<dim>32</dim>
					<dim>6</dim>
					<dim>6</dim>
				</port>
			</input>
			<output>
				<port id="22">
					<dim>1</dim>
					<dim>928</dim>
					<dim>6</dim>
					<dim>6</dim>
				</port>
			</output>
		</layer>
		<layer id="249" name="Mul1_20536/Fused_Mul_/FusedScaleShift_" precision="FP32" type="ScaleShift">
			<input>
				<port id="0">
					<dim>1</dim>
					<dim>928</dim>
					<dim>6</dim>
					<dim>6</dim>
				</port>
			</input>
			<output>
				<port id="3">
					<dim>1</dim>
					<dim>928</dim>
					<dim>6</dim>
					<dim>6</dim>
				</port>
			</output>
			<blobs>
				<weights offset="15106304" size="3712"/>
				<biases offset="15110016" size="3712"/>
			</blobs>
		</layer>
		<layer id="250" name="1309" precision="FP32" type="ReLU">
			<input>
				<port id="0">
					<dim>1</dim>
					<dim>928</dim>
					<dim>6</dim>
					<dim>6</dim>
				</port>
			</input>
			<output>
				<port id="1">
					<dim>1</dim>
					<dim>928</dim>
					<dim>6</dim>
					<dim>6</dim>
				</port>
			</output>
		</layer>
		<layer id="251" name="1310" precision="FP32" type="Convolution">
			<data dilations="1,1" group="1" kernel="1,1" output="128" pads_begin="0,0" pads_end="0,0" strides="1,1"/>
			<input>
				<port id="0">
					<dim>1</dim>
					<dim>928</dim>
					<dim>6</dim>
					<dim>6</dim>
				</port>
			</input>
			<output>
				<port id="3">
					<dim>1</dim>
					<dim>128</dim>
					<dim>6</dim>
					<dim>6</dim>
				</port>
			</output>
			<blobs>
				<weights offset="15113728" size="475136"/>
				<biases offset="15588864" size="512"/>
			</blobs>
		</layer>
		<layer id="252" name="1312" precision="FP32" type="ReLU">
			<input>
				<port id="0">
					<dim>1</dim>
					<dim>128</dim>
					<dim>6</dim>
					<dim>6</dim>
				</port>
			</input>
			<output>
				<port id="1">
					<dim>1</dim>
					<dim>128</dim>
					<dim>6</dim>
					<dim>6</dim>
				</port>
			</output>
		</layer>
		<layer id="253" name="1313" precision="FP32" type="Convolution">
			<data dilations="1,1" group="1" kernel="3,3" output="32" pads_begin="1,1" pads_end="1,1" strides="1,1"/>
			<input>
				<port id="0">
					<dim>1</dim>
					<dim>128</dim>
					<dim>6</dim>
					<dim>6</dim>
				</port>
			</input>
			<output>
				<port id="2">
					<dim>1</dim>
					<dim>32</dim>
					<dim>6</dim>
					<dim>6</dim>
				</port>
			</output>
			<blobs>
				<weights offset="15589376" size="147456"/>
			</blobs>
		</layer>
		<layer id="254" name="1314" precision="FP32" type="Concat">
			<data axis="1"/>
			<input>
				<port id="0">
					<dim>1</dim>
					<dim>256</dim>
					<dim>6</dim>
					<dim>6</dim>
				</port>
				<port id="1">
					<dim>1</dim>
					<dim>32</dim>
					<dim>6</dim>
					<dim>6</dim>
				</port>
				<port id="2">
					<dim>1</dim>
					<dim>32</dim>
					<dim>6</dim>
					<dim>6</dim>
				</port>
				<port id="3">
					<dim>1</dim>
					<dim>32</dim>
					<dim>6</dim>
					<dim>6</dim>
				</port>
				<port id="4">
					<dim>1</dim>
					<dim>32</dim>
					<dim>6</dim>
					<dim>6</dim>
				</port>
				<port id="5">
					<dim>1</dim>
					<dim>32</dim>
					<dim>6</dim>
					<dim>6</dim>
				</port>
				<port id="6">
					<dim>1</dim>
					<dim>32</dim>
					<dim>6</dim>
					<dim>6</dim>
				</port>
				<port id="7">
					<dim>1</dim>
					<dim>32</dim>
					<dim>6</dim>
					<dim>6</dim>
				</port>
				<port id="8">
					<dim>1</dim>
					<dim>32</dim>
					<dim>6</dim>
					<dim>6</dim>
				</port>
				<port id="9">
					<dim>1</dim>
					<dim>32</dim>
					<dim>6</dim>
					<dim>6</dim>
				</port>
				<port id="10">
					<dim>1</dim>
					<dim>32</dim>
					<dim>6</dim>
					<dim>6</dim>
				</port>
				<port id="11">
					<dim>1</dim>
					<dim>32</dim>
					<dim>6</dim>
					<dim>6</dim>
				</port>
				<port id="12">
					<dim>1</dim>
					<dim>32</dim>
					<dim>6</dim>
					<dim>6</dim>
				</port>
				<port id="13">
					<dim>1</dim>
					<dim>32</dim>
					<dim>6</dim>
					<dim>6</dim>
				</port>
				<port id="14">
					<dim>1</dim>
					<dim>32</dim>
					<dim>6</dim>
					<dim>6</dim>
				</port>
				<port id="15">
					<dim>1</dim>
					<dim>32</dim>
					<dim>6</dim>
					<dim>6</dim>
				</port>
				<port id="16">
					<dim>1</dim>
					<dim>32</dim>
					<dim>6</dim>
					<dim>6</dim>
				</port>
				<port id="17">
					<dim>1</dim>
					<dim>32</dim>
					<dim>6</dim>
					<dim>6</dim>
				</port>
				<port id="18">
					<dim>1</dim>
					<dim>32</dim>
					<dim>6</dim>
					<dim>6</dim>
				</port>
				<port id="19">
					<dim>1</dim>
					<dim>32</dim>
					<dim>6</dim>
					<dim>6</dim>
				</port>
				<port id="20">
					<dim>1</dim>
					<dim>32</dim>
					<dim>6</dim>
					<dim>6</dim>
				</port>
				<port id="21">
					<dim>1</dim>
					<dim>32</dim>
					<dim>6</dim>
					<dim>6</dim>
				</port>
				<port id="22">
					<dim>1</dim>
					<dim>32</dim>
					<dim>6</dim>
					<dim>6</dim>
				</port>
			</input>
			<output>
				<port id="23">
					<dim>1</dim>
					<dim>960</dim>
					<dim>6</dim>
					<dim>6</dim>
				</port>
			</output>
		</layer>
		<layer id="255" name="Mul1_20152/Fused_Mul_/FusedScaleShift_" precision="FP32" type="ScaleShift">
			<input>
				<port id="0">
					<dim>1</dim>
					<dim>960</dim>
					<dim>6</dim>
					<dim>6</dim>
				</port>
			</input>
			<output>
				<port id="3">
					<dim>1</dim>
					<dim>960</dim>
					<dim>6</dim>
					<dim>6</dim>
				</port>
			</output>
			<blobs>
				<weights offset="15736832" size="3840"/>
				<biases offset="15740672" size="3840"/>
			</blobs>
		</layer>
		<layer id="256" name="1316" precision="FP32" type="ReLU">
			<input>
				<port id="0">
					<dim>1</dim>
					<dim>960</dim>
					<dim>6</dim>
					<dim>6</dim>
				</port>
			</input>
			<output>
				<port id="1">
					<dim>1</dim>
					<dim>960</dim>
					<dim>6</dim>
					<dim>6</dim>
				</port>
			</output>
		</layer>
		<layer id="257" name="1317" precision="FP32" type="Convolution">
			<data dilations="1,1" group="1" kernel="1,1" output="128" pads_begin="0,0" pads_end="0,0" strides="1,1"/>
			<input>
				<port id="0">
					<dim>1</dim>
					<dim>960</dim>
					<dim>6</dim>
					<dim>6</dim>
				</port>
			</input>
			<output>
				<port id="3">
					<dim>1</dim>
					<dim>128</dim>
					<dim>6</dim>
					<dim>6</dim>
				</port>
			</output>
			<blobs>
				<weights offset="15744512" size="491520"/>
				<biases offset="16236032" size="512"/>
			</blobs>
		</layer>
		<layer id="258" name="1319" precision="FP32" type="ReLU">
			<input>
				<port id="0">
					<dim>1</dim>
					<dim>128</dim>
					<dim>6</dim>
					<dim>6</dim>
				</port>
			</input>
			<output>
				<port id="1">
					<dim>1</dim>
					<dim>128</dim>
					<dim>6</dim>
					<dim>6</dim>
				</port>
			</output>
		</layer>
		<layer id="259" name="1320" precision="FP32" type="Convolution">
			<data dilations="1,1" group="1" kernel="3,3" output="32" pads_begin="1,1" pads_end="1,1" strides="1,1"/>
			<input>
				<port id="0">
					<dim>1</dim>
					<dim>128</dim>
					<dim>6</dim>
					<dim>6</dim>
				</port>
			</input>
			<output>
				<port id="2">
					<dim>1</dim>
					<dim>32</dim>
					<dim>6</dim>
					<dim>6</dim>
				</port>
			</output>
			<blobs>
				<weights offset="16236544" size="147456"/>
			</blobs>
		</layer>
		<layer id="260" name="1321" precision="FP32" type="Concat">
			<data axis="1"/>
			<input>
				<port id="0">
					<dim>1</dim>
					<dim>256</dim>
					<dim>6</dim>
					<dim>6</dim>
				</port>
				<port id="1">
					<dim>1</dim>
					<dim>32</dim>
					<dim>6</dim>
					<dim>6</dim>
				</port>
				<port id="2">
					<dim>1</dim>
					<dim>32</dim>
					<dim>6</dim>
					<dim>6</dim>
				</port>
				<port id="3">
					<dim>1</dim>
					<dim>32</dim>
					<dim>6</dim>
					<dim>6</dim>
				</port>
				<port id="4">
					<dim>1</dim>
					<dim>32</dim>
					<dim>6</dim>
					<dim>6</dim>
				</port>
				<port id="5">
					<dim>1</dim>
					<dim>32</dim>
					<dim>6</dim>
					<dim>6</dim>
				</port>
				<port id="6">
					<dim>1</dim>
					<dim>32</dim>
					<dim>6</dim>
					<dim>6</dim>
				</port>
				<port id="7">
					<dim>1</dim>
					<dim>32</dim>
					<dim>6</dim>
					<dim>6</dim>
				</port>
				<port id="8">
					<dim>1</dim>
					<dim>32</dim>
					<dim>6</dim>
					<dim>6</dim>
				</port>
				<port id="9">
					<dim>1</dim>
					<dim>32</dim>
					<dim>6</dim>
					<dim>6</dim>
				</port>
				<port id="10">
					<dim>1</dim>
					<dim>32</dim>
					<dim>6</dim>
					<dim>6</dim>
				</port>
				<port id="11">
					<dim>1</dim>
					<dim>32</dim>
					<dim>6</dim>
					<dim>6</dim>
				</port>
				<port id="12">
					<dim>1</dim>
					<dim>32</dim>
					<dim>6</dim>
					<dim>6</dim>
				</port>
				<port id="13">
					<dim>1</dim>
					<dim>32</dim>
					<dim>6</dim>
					<dim>6</dim>
				</port>
				<port id="14">
					<dim>1</dim>
					<dim>32</dim>
					<dim>6</dim>
					<dim>6</dim>
				</port>
				<port id="15">
					<dim>1</dim>
					<dim>32</dim>
					<dim>6</dim>
					<dim>6</dim>
				</port>
				<port id="16">
					<dim>1</dim>
					<dim>32</dim>
					<dim>6</dim>
					<dim>6</dim>
				</port>
				<port id="17">
					<dim>1</dim>
					<dim>32</dim>
					<dim>6</dim>
					<dim>6</dim>
				</port>
				<port id="18">
					<dim>1</dim>
					<dim>32</dim>
					<dim>6</dim>
					<dim>6</dim>
				</port>
				<port id="19">
					<dim>1</dim>
					<dim>32</dim>
					<dim>6</dim>
					<dim>6</dim>
				</port>
				<port id="20">
					<dim>1</dim>
					<dim>32</dim>
					<dim>6</dim>
					<dim>6</dim>
				</port>
				<port id="21">
					<dim>1</dim>
					<dim>32</dim>
					<dim>6</dim>
					<dim>6</dim>
				</port>
				<port id="22">
					<dim>1</dim>
					<dim>32</dim>
					<dim>6</dim>
					<dim>6</dim>
				</port>
				<port id="23">
					<dim>1</dim>
					<dim>32</dim>
					<dim>6</dim>
					<dim>6</dim>
				</port>
			</input>
			<output>
				<port id="24">
					<dim>1</dim>
					<dim>992</dim>
					<dim>6</dim>
					<dim>6</dim>
				</port>
			</output>
		</layer>
		<layer id="261" name="Mul1_20800/Fused_Mul_/FusedScaleShift_" precision="FP32" type="ScaleShift">
			<input>
				<port id="0">
					<dim>1</dim>
					<dim>992</dim>
					<dim>6</dim>
…
		<edge from-layer="338" from-port="3" to-layer="339" to-port="0"/>
		<edge from-layer="339" from-port="1" to-layer="340" to-port="0"/>
		<edge from-layer="340" from-port="3" to-layer="341" to-port="0"/>
		<edge from-layer="341" from-port="1" to-layer="342" to-port="0"/>
		<edge from-layer="318" from-port="1" to-layer="343" to-port="0"/>
		<edge from-layer="324" from-port="2" to-layer="343" to-port="1"/>
		<edge from-layer="330" from-port="2" to-layer="343" to-port="2"/>
		<edge from-layer="336" from-port="2" to-layer="343" to-port="3"/>
		<edge from-layer="342" from-port="2" to-layer="343" to-port="4"/>
		<edge from-layer="343" from-port="5" to-layer="344" to-port="0"/>
		<edge from-layer="344" from-port="3" to-layer="345" to-port="0"/>
		<edge from-layer="345" from-port="1" to-layer="346" to-port="0"/>
		<edge from-layer="346" from-port="3" to-layer="347" to-port="0"/>
		<edge from-layer="347" from-port="1" to-layer="348" to-port="0"/>
		<edge from-layer="318" from-port="1" to-layer="349" to-port="0"/>
		<edge from-layer="324" from-port="2" to-layer="349" to-port="1"/>
		<edge from-layer="330" from-port="2" to-layer="349" to-port="2"/>
		<edge from-layer="336" from-port="2" to-layer="349" to-port="3"/>
		<edge from-layer="342" from-port="2" to-layer="349" to-port="4"/>
		<edge from-layer="348" from-port="2" to-layer="349" to-port="5"/>
		<edge from-layer="349" from-port="6" to-layer="350" to-port="0"/>
		<edge from-layer="350" from-port="3" to-layer="351" to-port="0"/>
		<edge from-layer="351" from-port="1" to-layer="352" to-port="0"/>
		<edge from-layer="352" from-port="3" to-layer="353" to-port="0"/>
		<edge from-layer="353" from-port="1" to-layer="354" to-port="0"/>
		<edge from-layer="318" from-port="1" to-layer="355" to-port="0"/>
		<edge from-layer="324" from-port="2" to-layer="355" to-port="1"/>
		<edge from-layer="330" from-port="2" to-layer="355" to-port="2"/>
		<edge from-layer="336" from-port="2" to-layer="355" to-port="3"/>
		<edge from-layer="342" from-port="2" to-layer="355" to-port="4"/>
		<edge from-layer="348" from-port="2" to-layer="355" to-port="5"/>
		<edge from-layer="354" from-port="2" to-layer="355" to-port="6"/>
		<edge from-layer="355" from-port="7" to-layer="356" to-port="0"/>
		<edge from-layer="356" from-port="3" to-layer="357" to-port="0"/>
		<edge from-layer="357" from-port="1" to-layer="358" to-port="0"/>
		<edge from-layer="358" from-port="3" to-layer="359" to-port="0"/>
		<edge from-layer="359" from-port="1" to-layer="360" to-port="0"/>
		<edge from-layer="318" from-port="1" to-layer="361" to-port="0"/>
		<edge from-layer="324" from-port="2" to-layer="361" to-port="1"/>
		<edge from-layer="330" from-port="2" to-layer="361" to-port="2"/>
		<edge from-layer="336" from-port="2" to-layer="361" to-port="3"/>
		<edge from-layer="342" from-port="2" to-layer="361" to-port="4"/>
		<edge from-layer="348" from-port="2" to-layer="361" to-port="5"/>
		<edge from-layer="354" from-port="2" to-layer="361" to-port="6"/>
		<edge from-layer="360" from-port="2" to-layer="361" to-port="7"/>
		<edge from-layer="361" from-port="8" to-layer="362" to-port="0"/>
		<edge from-layer="362" from-port="3" to-layer="363" to-port="0"/>
		<edge from-layer="363" from-port="1" to-layer="364" to-port="0"/>
		<edge from-layer="364" from-port="3" to-layer="365" to-port="0"/>
		<edge from-layer="365" from-port="1" to-layer="366" to-port="0"/>
		<edge from-layer="318" from-port="1" to-layer="367" to-port="0"/>
		<edge from-layer="324" from-port="2" to-layer="367" to-port="1"/>
		<edge from-layer="330" from-port="2" to-layer="367" to-port="2"/>
		<edge from-layer="336" from-port="2" to-layer="367" to-port="3"/>
		<edge from-layer="342" from-port="2" to-layer="367" to-port="4"/>
		<edge from-layer="348" from-port="2" to-layer="367" to-port="5"/>
		<edge from-layer="354" from-port="2" to-layer="367" to-port="6"/>
		<edge from-layer="360" from-port="2" to-layer="367" to-port="7"/>
		<edge from-layer="366" from-port="2" to-layer="367" to-port="8"/>
		<edge from-layer="367" from-port="9" to-layer="368" to-port="0"/>
		<edge from-layer="368" from-port="3" to-layer="369" to-port="0"/>
		<edge from-layer="369" from-port="1" to-layer="370" to-port="0"/>
		<edge from-layer="370" from-port="3" to-layer="371" to-port="0"/>
		<edge from-layer="371" from-port="1" to-layer="372" to-port="0"/>
		<edge from-layer="318" from-port="1" to-layer="373" to-port="0"/>
		<edge from-layer="324" from-port="2" to-layer="373" to-port="1"/>
		<edge from-layer="330" from-port="2" to-layer="373" to-port="2"/>
		<edge from-layer="336" from-port="2" to-layer="373" to-port="3"/>
		<edge from-layer="342" from-port="2" to-layer="373" to-port="4"/>
		<edge from-layer="348" from-port="2" to-layer="373" to-port="5"/>
		<edge from-layer="354" from-port="2" to-layer="373" to-port="6"/>
		<edge from-layer="360" from-port="2" to-layer="373" to-port="7"/>
		<edge from-layer="366" from-port="2" to-layer="373" to-port="8"/>
		<edge from-layer="372" from-port="2" to-layer="373" to-port="9"/>
		<edge from-layer="373" from-port="10" to-layer="374" to-port="0"/>
		<edge from-layer="374" from-port="3" to-layer="375" to-port="0"/>
		<edge from-layer="375" from-port="1" to-layer="376" to-port="0"/>
		<edge from-layer="376" from-port="3" to-layer="377" to-port="0"/>
		<edge from-layer="377" from-port="1" to-layer="378" to-port="0"/>
		<edge from-layer="318" from-port="1" to-layer="379" to-port="0"/>
		<edge from-layer="324" from-port="2" to-layer="379" to-port="1"/>
		<edge from-layer="330" from-port="2" to-layer="379" to-port="2"/>
		<edge from-layer="336" from-port="2" to-layer="379" to-port="3"/>
		<edge from-layer="342" from-port="2" to-layer="379" to-port="4"/>
		<edge from-layer="348" from-port="2" to-layer="379" to-port="5"/>
		<edge from-layer="354" from-port="2" to-layer="379" to-port="6"/>
		<edge from-layer="360" from-port="2" to-layer="379" to-port="7"/>
		<edge from-layer="366" from-port="2" to-layer="379" to-port="8"/>
		<edge from-layer="372" from-port="2" to-layer="379" to-port="9"/>
		<edge from-layer="378" from-port="2" to-layer="379" to-port="10"/>
		<edge from-layer="379" from-port="11" to-layer="380" to-port="0"/>
		<edge from-layer="380" from-port="3" to-layer="381" to-port="0"/>
		<edge from-layer="381" from-port="1" to-layer="382" to-port="0"/>
		<edge from-layer="382" from-port="3" to-layer="383" to-port="0"/>
		<edge from-layer="383" from-port="1" to-layer="384" to-port="0"/>
		<edge from-layer="318" from-port="1" to-layer="385" to-port="0"/>
		<edge from-layer="324" from-port="2" to-layer="385" to-port="1"/>
		<edge from-layer="330" from-port="2" to-layer="385" to-port="2"/>
		<edge from-layer="336" from-port="2" to-layer="385" to-port="3"/>
		<edge from-layer="342" from-port="2" to-layer="385" to-port="4"/>
		<edge from-layer="348" from-port="2" to-layer="385" to-port="5"/>
		<edge from-layer="354" from-port="2" to-layer="385" to-port="6"/>
		<edge from-layer="360" from-port="2" to-layer="385" to-port="7"/>
		<edge from-layer="366" from-port="2" to-layer="385" to-port="8"/>
		<edge from-layer="372" from-port="2" to-layer="385" to-port="9"/>
		<edge from-layer="378" from-port="2" to-layer="385" to-port="10"/>
		<edge from-layer="384" from-port="2" to-layer="385" to-port="11"/>
		<edge from-layer="385" from-port="12" to-layer="386" to-port="0"/>
		<edge from-layer="386" from-port="3" to-layer="387" to-port="0"/>
		<edge from-layer="387" from-port="1" to-layer="388" to-port="0"/>
		<edge from-layer="388" from-port="3" to-layer="389" to-port="0"/>
		<edge from-layer="389" from-port="1" to-layer="390" to-port="0"/>
		<edge from-layer="318" from-port="1" to-layer="391" to-port="0"/>
		<edge from-layer="324" from-port="2" to-layer="391" to-port="1"/>
		<edge from-layer="330" from-port="2" to-layer="391" to-port="2"/>
		<edge from-layer="336" from-port="2" to-layer="391" to-port="3"/>
		<edge from-layer="342" from-port="2" to-layer="391" to-port="4"/>
		<edge from-layer="348" from-port="2" to-layer="391" to-port="5"/>
		<edge from-layer="354" from-port="2" to-layer="391" to-port="6"/>
		<edge from-layer="360" from-port="2" to-layer="391" to-port="7"/>
		<edge from-layer="366" from-port="2" to-layer="391" to-port="8"/>
		<edge from-layer="372" from-port="2" to-layer="391" to-port="9"/>
		<edge from-layer="378" from-port="2" to-layer="391" to-port="10"/>
		<edge from-layer="384" from-port="2" to-layer="391" to-port="11"/>
		<edge from-layer="390" from-port="2" to-layer="391" to-port="12"/>
		<edge from-layer="391" from-port="13" to-layer="392" to-port="0"/>
		<edge from-layer="392" from-port="3" to-layer="393" to-port="0"/>
		<edge from-layer="393" from-port="1" to-layer="394" to-port="0"/>
		<edge from-layer="394" from-port="3" to-layer="395" to-port="0"/>
		<edge from-layer="395" from-port="1" to-layer="396" to-port="0"/>
		<edge from-layer="318" from-port="1" to-layer="397" to-port="0"/>
		<edge from-layer="324" from-port="2" to-layer="397" to-port="1"/>
		<edge from-layer="330" from-port="2" to-layer="397" to-port="2"/>
		<edge from-layer="336" from-port="2" to-layer="397" to-port="3"/>
		<edge from-layer="342" from-port="2" to-layer="397" to-port="4"/>
		<edge from-layer="348" from-port="2" to-layer="397" to-port="5"/>
		<edge from-layer="354" from-port="2" to-layer="397" to-port="6"/>
		<edge from-layer="360" from-port="2" to-layer="397" to-port="7"/>
		<edge from-layer="366" from-port="2" to-layer="397" to-port="8"/>
		<edge from-layer="372" from-port="2" to-layer="397" to-port="9"/>
		<edge from-layer="378" from-port="2" to-layer="397" to-port="10"/>
		<edge from-layer="384" from-port="2" to-layer="397" to-port="11"/>
		<edge from-layer="390" from-port="2" to-layer="397" to-port="12"/>
		<edge from-layer="396" from-port="2" to-layer="397" to-port="13"/>
		<edge from-layer="397" from-port="14" to-layer="398" to-port="0"/>
		<edge from-layer="398" from-port="3" to-layer="399" to-port="0"/>
		<edge from-layer="399" from-port="1" to-layer="400" to-port="0"/>
		<edge from-layer="400" from-port="3" to-layer="401" to-port="0"/>
		<edge from-layer="401" from-port="1" to-layer="402" to-port="0"/>
		<edge from-layer="318" from-port="1" to-layer="403" to-port="0"/>
		<edge from-layer="324" from-port="2" to-layer="403" to-port="1"/>
		<edge from-layer="330" from-port="2" to-layer="403" to-port="2"/>
		<edge from-layer="336" from-port="2" to-layer="403" to-port="3"/>
		<edge from-layer="342" from-port="2" to-layer="403" to-port="4"/>
		<edge from-layer="348" from-port="2" to-layer="403" to-port="5"/>
		<edge from-layer="354" from-port="2" to-layer="403" to-port="6"/>
		<edge from-layer="360" from-port="2" to-layer="403" to-port="7"/>
		<edge from-layer="366" from-port="2" to-layer="403" to-port="8"/>
		<edge from-layer="372" from-port="2" to-layer="403" to-port="9"/>
		<edge from-layer="378" from-port="2" to-layer="403" to-port="10"/>
		<edge from-layer="384" from-port="2" to-layer="403" to-port="11"/>
		<edge from-layer="390" from-port="2" to-layer="403" to-port="12"/>
		<edge from-layer="396" from-port="2" to-layer="403" to-port="13"/>
		<edge from-layer="402" from-port="2" to-layer="403" to-port="14"/>
		<edge from-layer="403" from-port="15" to-layer="404" to-port="0"/>
		<edge from-layer="404" from-port="3" to-layer="405" to-port="0"/>
		<edge from-layer="405" from-port="1" to-layer="406" to-port="0"/>
		<edge from-layer="406" from-port="3" to-layer="407" to-port="0"/>
		<edge from-layer="407" from-port="1" to-layer="408" to-port="0"/>
		<edge from-layer="318" from-port="1" to-layer="409" to-port="0"/>
		<edge from-layer="324" from-port="2" to-layer="409" to-port="1"/>
		<edge from-layer="330" from-port="2" to-layer="409" to-port="2"/>
		<edge from-layer="336" from-port="2" to-layer="409" to-port="3"/>
		<edge from-layer="342" from-port="2" to-layer="409" to-port="4"/>
		<edge from-layer="348" from-port="2" to-layer="409" to-port="5"/>
		<edge from-layer="354" from-port="2" to-layer="409" to-port="6"/>
		<edge from-layer="360" from-port="2" to-layer="409" to-port="7"/>
		<edge from-layer="366" from-port="2" to-layer="409" to-port="8"/>
		<edge from-layer="372" from-port="2" to-layer="409" to-port="9"/>
		<edge from-layer="378" from-port="2" to-layer="409" to-port="10"/>
		<edge from-layer="384" from-port="2" to-layer="409" to-port="11"/>
		<edge from-layer="390" from-port="2" to-layer="409" to-port="12"/>
		<edge from-layer="396" from-port="2" to-layer="409" to-port="13"/>
		<edge from-layer="402" from-port="2" to-layer="409" to-port="14"/>
		<edge from-layer="408" from-port="2" to-layer="409" to-port="15"/>
		<edge from-layer="409" from-port="16" to-layer="410" to-port="0"/>
		<edge from-layer="410" from-port="3" to-layer="411" to-port="0"/>
		<edge from-layer="411" from-port="1" to-layer="412" to-port="0"/>
		<edge from-layer="412" from-port="3" to-layer="413" to-port="0"/>
		<edge from-layer="413" from-port="1" to-layer="414" to-port="0"/>
		<edge from-layer="318" from-port="1" to-layer="415" to-port="0"/>
		<edge from-layer="324" from-port="2" to-layer="415" to-port="1"/>
		<edge from-layer="330" from-port="2" to-layer="415" to-port="2"/>
		<edge from-layer="336" from-port="2" to-layer="415" to-port="3"/>
		<edge from-layer="342" from-port="2" to-layer="415" to-port="4"/>
		<edge from-layer="348" from-port="2" to-layer="415" to-port="5"/>
		<edge from-layer="354" from-port="2" to-layer="415" to-port="6"/>
		<edge from-layer="360" from-port="2" to-layer="415" to-port="7"/>
		<edge from-layer="366" from-port="2" to-layer="415" to-port="8"/>
		<edge from-layer="372" from-port="2" to-layer="415" to-port="9"/>
		<edge from-layer="378" from-port="2" to-layer="415" to-port="10"/>
		<edge from-layer="384" from-port="2" to-layer="415" to-port="11"/>
		<edge from-layer="390" from-port="2" to-layer="415" to-port="12"/>
		<edge from-layer="396" from-port="2" to-layer="415" to-port="13"/>
		<edge from-layer="402" from-port="2" to-layer="415" to-port="14"/>
		<edge from-layer="408" from-port="2" to-layer="415" to-port="15"/>
		<edge from-layer="414" from-port="2" to-layer="415" to-port="16"/>
		<edge from-layer="415" from-port="17" to-layer="416" to-port="0"/>
		<edge from-layer="416" from-port="3" to-layer="417" to-port="0"/>
		<edge from-layer="417" from-port="1" to-layer="418" to-port="0"/>
		<edge from-layer="418" from-port="3" to-layer="419" to-port="0"/>
		<edge from-layer="419" from-port="1" to-layer="420" to-port="0"/>
		<edge from-layer="318" from-port="1" to-layer="421" to-port="0"/>
		<edge from-layer="324" from-port="2" to-layer="421" to-port="1"/>
		<edge from-layer="330" from-port="2" to-layer="421" to-port="2"/>
		<edge from-layer="336" from-port="2" to-layer="421" to-port="3"/>
		<edge from-layer="342" from-port="2" to-layer="421" to-port="4"/>
		<edge from-layer="348" from-port="2" to-layer="421" to-port="5"/>
		<edge from-layer="354" from-port="2" to-layer="421" to-port="6"/>
		<edge from-layer="360" from-port="2" to-layer="421" to-port="7"/>
		<edge from-layer="366" from-port="2" to-layer="421" to-port="8"/>
		<edge from-layer="372" from-port="2" to-layer="421" to-port="9"/>
		<edge from-layer="378" from-port="2" to-layer="421" to-port="10"/>
		<edge from-layer="384" from-port="2" to-layer="421" to-port="11"/>
		<edge from-layer="390" from-port="2" to-layer="421" to-port="12"/>
		<edge from-layer="396" from-port="2" to-layer="421" to-port="13"/>
		<edge from-layer="402" from-port="2" to-layer="421" to-port="14"/>
		<edge from-layer="408" from-port="2" to-layer="421" to-port="15"/>
		<edge from-layer="414" from-port="2" to-layer="421" to-port="16"/>
		<edge from-layer="420" from-port="2" to-layer="421" to-port="17"/>
		<edge from-layer="421" from-port="18" to-layer="422" to-port="0"/>
		<edge from-layer="422" from-port="3" to-layer="423" to-port="0"/>
		<edge from-layer="423" from-port="1" to-layer="424" to-port="0"/>
		<edge from-layer="424" from-port="3" to-layer="425" to-port="0"/>
		<edge from-layer="425" from-port="1" to-layer="426" to-port="0"/>
		<edge from-layer="318" from-port="1" to-layer="427" to-port="0"/>
		<edge from-layer="324" from-port="2" to-layer="427" to-port="1"/>
		<edge from-layer="330" from-port="2" to-layer="427" to-port="2"/>
		<edge from-layer="336" from-port="2" to-layer="427" to-port="3"/>
		<edge from-layer="342" from-port="2" to-layer="427" to-port="4"/>
		<edge from-layer="348" from-port="2" to-layer="427" to-port="5"/>
		<edge from-layer="354" from-port="2" to-layer="427" to-port="6"/>
		<edge from-layer="360" from-port="2" to-layer="427" to-port="7"/>
		<edge from-layer="366" from-port="2" to-layer="427" to-port="8"/>
		<edge from-layer="372" from-port="2" to-layer="427" to-port="9"/>
		<edge from-layer="378" from-port="2" to-layer="427" to-port="10"/>
		<edge from-layer="384" from-port="2" to-layer="427" to-port="11"/>
		<edge from-layer="390" from-port="2" to-layer="427" to-port="12"/>
		<edge from-layer="396" from-port="2" to-layer="427" to-port="13"/>
		<edge from-layer="402" from-port="2" to-layer="427" to-port="14"/>
		<edge from-layer="408" from-port="2" to-layer="427" to-port="15"/>
		<edge from-layer="414" from-port="2" to-layer="427" to-port="16"/>
		<edge from-layer="420" from-port="2" to-layer="427" to-port="17"/>
		<edge from-layer="426" from-port="2" to-layer="427" to-port="18"/>
		<edge from-layer="427" from-port="19" to-layer="428" to-port="0"/>
		<edge from-layer="428" from-port="3" to-layer="429" to-port="0"/>
		<edge from-layer="429" from-port="1" to-layer="430" to-port="0"/>
		<edge from-layer="430" from-port="3" to-layer="431" to-port="0"/>
		<edge from-layer="431" from-port="1" to-layer="432" to-port="0"/>
		<edge from-layer="318" from-port="1" to-layer="433" to-port="0"/>
		<edge from-layer="324" from-port="2" to-layer="433" to-port="1"/>
		<edge from-layer="330" from-port="2" to-layer="433" to-port="2"/>
		<edge from-layer="336" from-port="2" to-layer="433" to-port="3"/>
		<edge from-layer="342" from-port="2" to-layer="433" to-port="4"/>
		<edge from-layer="348" from-port="2" to-layer="433" to-port="5"/>
		<edge from-layer="354" from-port="2" to-layer="433" to-port="6"/>
		<edge from-layer="360" from-port="2" to-layer="433" to-port="7"/>
		<edge from-layer="366" from-port="2" to-layer="433" to-port="8"/>
		<edge from-layer="372" from-port="2" to-layer="433" to-port="9"/>
		<edge from-layer="378" from-port="2" to-layer="433" to-port="10"/>
		<edge from-layer="384" from-port="2" to-layer="433" to-port="11"/>
		<edge from-layer="390" from-port="2" to-layer="433" to-port="12"/>
		<edge from-layer="396" from-port="2" to-layer="433" to-port="13"/>
		<edge from-layer="402" from-port="2" to-layer="433" to-port="14"/>
		<edge from-layer="408" from-port="2" to-layer="433" to-port="15"/>
		<edge from-layer="414" from-port="2" to-layer="433" to-port="16"/>
		<edge from-layer="420" from-port="2" to-layer="433" to-port="17"/>
		<edge from-layer="426" from-port="2" to-layer="433" to-port="18"/>
		<edge from-layer="432" from-port="2" to-layer="433" to-port="19"/>
		<edge from-layer="433" from-port="20" to-layer="434" to-port="0"/>
		<edge from-layer="434" from-port="3" to-layer="435" to-port="0"/>
		<edge from-layer="435" from-port="1" to-layer="436" to-port="0"/>
		<edge from-layer="436" from-port="3" to-layer="437" to-port="0"/>
		<edge from-layer="437" from-port="1" to-layer="438" to-port="0"/>
		<edge from-layer="318" from-port="1" to-layer="439" to-port="0"/>
		<edge from-layer="324" from-port="2" to-layer="439" to-port="1"/>
		<edge from-layer="330" from-port="2" to-layer="439" to-port="2"/>
		<edge from-layer="336" from-port="2" to-layer="439" to-port="3"/>
		<edge from-layer="342" from-port="2" to-layer="439" to-port="4"/>
		<edge from-layer="348" from-port="2" to-layer="439" to-port="5"/>
		<edge from-layer="354" from-port="2" to-layer="439" to-port="6"/>
		<edge from-layer="360" from-port="2" to-layer="439" to-port="7"/>
		<edge from-layer="366" from-port="2" to-layer="439" to-port="8"/>
		<edge from-layer="372" from-port="2" to-layer="439" to-port="9"/>
		<edge from-layer="378" from-port="2" to-layer="439" to-port="10"/>
		<edge from-layer="384" from-port="2" to-layer="439" to-port="11"/>
		<edge from-layer="390" from-port="2" to-layer="439" to-port="12"/>
		<edge from-layer="396" from-port="2" to-layer="439" to-port="13"/>
		<edge from-layer="402" from-port="2" to-layer="439" to-port="14"/>
		<edge from-layer="408" from-port="2" to-layer="439" to-port="15"/>
		<edge from-layer="414" from-port="2" to-layer="439" to-port="16"/>
		<edge from-layer="420" from-port="2" to-layer="439" to-port="17"/>
		<edge from-layer="426" from-port="2" to-layer="439" to-port="18"/>
		<edge from-layer="432" from-port="2" to-layer="439" to-port="19"/>
		<edge from-layer="438" from-port="2" to-layer="439" to-port="20"/>
		<edge from-layer="439" from-port="21" to-layer="440" to-port="0"/>
		<edge from-layer="440" from-port="3" to-layer="441" to-port="0"/>
		<edge from-layer="441" from-port="1" to-layer="442" to-port="0"/>
		<edge from-layer="442" from-port="3" to-layer="443" to-port="0"/>
		<edge from-layer="443" from-port="1" to-layer="444" to-port="0"/>
		<edge from-layer="318" from-port="1" to-layer="445" to-port="0"/>
		<edge from-layer="324" from-port="2" to-layer="445" to-port="1"/>
		<edge from-layer="330" from-port="2" to-layer="445" to-port="2"/>
		<edge from-layer="336" from-port="2" to-layer="445" to-port="3"/>
		<edge from-layer="342" from-port="2" to-layer="445" to-port="4"/>
		<edge from-layer="348" from-port="2" to-layer="445" to-port="5"/>
		<edge from-layer="354" from-port="2" to-layer="445" to-port="6"/>
		<edge from-layer="360" from-port="2" to-layer="445" to-port="7"/>
		<edge from-layer="366" from-port="2" to-layer="445" to-port="8"/>
		<edge from-layer="372" from-port="2" to-layer="445" to-port="9"/>
		<edge from-layer="378" from-port="2" to-layer="445" to-port="10"/>
		<edge from-layer="384" from-port="2" to-layer="445" to-port="11"/>
		<edge from-layer="390" from-port="2" to-layer="445" to-port="12"/>
		<edge from-layer="396" from-port="2" to-layer="445" to-port="13"/>
		<edge from-layer="402" from-port="2" to-layer="445" to-port="14"/>
		<edge from-layer="408" from-port="2" to-layer="445" to-port="15"/>
		<edge from-layer="414" from-port="2" to-layer="445" to-port="16"/>
		<edge from-layer="420" from-port="2" to-layer="445" to-port="17"/>
		<edge from-layer="426" from-port="2" to-layer="445" to-port="18"/>
		<edge from-layer="432" from-port="2" to-layer="445" to-port="19"/>
		<edge from-layer="438" from-port="2" to-layer="445" to-port="20"/>
		<edge from-layer="444" from-port="2" to-layer="445" to-port="21"/>
		<edge from-layer="445" from-port="22" to-layer="446" to-port="0"/>
		<edge from-layer="446" from-port="3" to-layer="447" to-port="0"/>
		<edge from-layer="447" from-port="1" to-layer="448" to-port="0"/>
		<edge from-layer="448" from-port="3" to-layer="449" to-port="0"/>
		<edge from-layer="449" from-port="1" to-layer="450" to-port="0"/>
		<edge from-layer="318" from-port="1" to-layer="451" to-port="0"/>
		<edge from-layer="324" from-port="2" to-layer="451" to-port="1"/>
		<edge from-layer="330" from-port="2" to-layer="451" to-port="2"/>
		<edge from-layer="336" from-port="2" to-layer="451" to-port="3"/>
		<edge from-layer="342" from-port="2" to-layer="451" to-port="4"/>
		<edge from-layer="348" from-port="2" to-layer="451" to-port="5"/>
		<edge from-layer="354" from-port="2" to-layer="451" to-port="6"/>
		<edge from-layer="360" from-port="2" to-layer="451" to-port="7"/>
		<edge from-layer="366" from-port="2" to-layer="451" to-port="8"/>
		<edge from-layer="372" from-port="2" to-layer="451" to-port="9"/>
		<edge from-layer="378" from-port="2" to-layer="451" to-port="10"/>
		<edge from-layer="384" from-port="2" to-layer="451" to-port="11"/>
		<edge from-layer="390" from-port="2" to-layer="451" to-port="12"/>
		<edge from-layer="396" from-port="2" to-layer="451" to-port="13"/>
		<edge from-layer="402" from-port="2" to-layer="451" to-port="14"/>
		<edge from-layer="408" from-port="2" to-layer="451" to-port="15"/>
		<edge from-layer="414" from-port="2" to-layer="451" to-port="16"/>
		<edge from-layer="420" from-port="2" to-layer="451" to-port="17"/>
		<edge from-layer="426" from-port="2" to-layer="451" to-port="18"/>
		<edge from-layer="432" from-port="2" to-layer="451" to-port="19"/>
		<edge from-layer="438" from-port="2" to-layer="451" to-port="20"/>
		<edge from-layer="444" from-port="2" to-layer="451" to-port="21"/>
		<edge from-layer="450" from-port="2" to-layer="451" to-port="22"/>
		<edge from-layer="451" from-port="23" to-layer="452" to-port="0"/>
		<edge from-layer="452" from-port="3" to-layer="453" to-port="0"/>
		<edge from-layer="453" from-port="1" to-layer="454" to-port="0"/>
		<edge from-layer="454" from-port="3" to-layer="455" to-port="0"/>
		<edge from-layer="455" from-port="1" to-layer="456" to-port="0"/>
		<edge from-layer="318" from-port="1" to-layer="457" to-port="0"/>
		<edge from-layer="324" from-port="2" to-layer="457" to-port="1"/>
		<edge from-layer="330" from-port="2" to-layer="457" to-port="2"/>
		<edge from-layer="336" from-port="2" to-layer="457" to-port="3"/>
		<edge from-layer="342" from-port="2" to-layer="457" to-port="4"/>
		<edge from-layer="348" from-port="2" to-layer="457" to-port="5"/>
		<edge from-layer="354" from-port="2" to-layer="457" to-port="6"/>
		<edge from-layer="360" from-port="2" to-layer="457" to-port="7"/>
		<edge from-layer="366" from-port="2" to-layer="457" to-port="8"/>
		<edge from-layer="372" from-port="2" to-layer="457" to-port="9"/>
		<edge from-layer="378" from-port="2" to-layer="457" to-port="10"/>
		<edge from-layer="384" from-port="2" to-layer="457" to-port="11"/>
		<edge from-layer="390" from-port="2" to-layer="457" to-port="12"/>
		<edge from-layer="396" from-port="2" to-layer="457" to-port="13"/>
		<edge from-layer="402" from-port="2" to-layer="457" to-port="14"/>
		<edge from-layer="408" from-port="2" to-layer="457" to-port="15"/>
		<edge from-layer="414" from-port="2" to-layer="457" to-port="16"/>
		<edge from-layer="420" from-port="2" to-layer="457" to-port="17"/>
		<edge from-layer="426" from-port="2" to-layer="457" to-port="18"/>
		<edge from-layer="432" from-port="2" to-layer="457" to-port="19"/>
		<edge from-layer="438" from-port="2" to-layer="457" to-port="20"/>
		<edge from-layer="444" from-port="2" to-layer="457" to-port="21"/>
		<edge from-layer="450" from-port="2" to-layer="457" to-port="22"/>
		<edge from-layer="456" from-port="2" to-layer="457" to-port="23"/>
		<edge from-layer="457" from-port="24" to-layer="458" to-port="0"/>
		<edge from-layer="458" from-port="3" to-layer="459" to-port="0"/>
		<edge from-layer="459" from-port="1" to-layer="460" to-port="0"/>
		<edge from-layer="460" from-port="3" to-layer="461" to-port="0"/>
		<edge from-layer="461" from-port="1" to-layer="462" to-port="0"/>
		<edge from-layer="318" from-port="1" to-layer="463" to-port="0"/>
		<edge from-layer="324" from-port="2" to-layer="463" to-port="1"/>
		<edge from-layer="330" from-port="2" to-layer="463" to-port="2"/>
		<edge from-layer="336" from-port="2" to-layer="463" to-port="3"/>
		<edge from-layer="342" from-port="2" to-layer="463" to-port="4"/>
		<edge from-layer="348" from-port="2" to-layer="463" to-port="5"/>
		<edge from-layer="354" from-port="2" to-layer="463" to-port="6"/>
		<edge from-layer="360" from-port="2" to-layer="463" to-port="7"/>
		<edge from-layer="366" from-port="2" to-layer="463" to-port="8"/>
		<edge from-layer="372" from-port="2" to-layer="463" to-port="9"/>
		<edge from-layer="378" from-port="2" to-layer="463" to-port="10"/>
		<edge from-layer="384" from-port="2" to-layer="463" to-port="11"/>
		<edge from-layer="390" from-port="2" to-layer="463" to-port="12"/>
		<edge from-layer="396" from-port="2" to-layer="463" to-port="13"/>
		<edge from-layer="402" from-port="2" to-layer="463" to-port="14"/>
		<edge from-layer="408" from-port="2" to-layer="463" to-port="15"/>
		<edge from-layer="414" from-port="2" to-layer="463" to-port="16"/>
		<edge from-layer="420" from-port="2" to-layer="463" to-port="17"/>
		<edge from-layer="426" from-port="2" to-layer="463" to-port="18"/>
		<edge from-layer="432" from-port="2" to-layer="463" to-port="19"/>
		<edge from-layer="438" from-port="2" to-layer="463" to-port="20"/>
		<edge from-layer="444" from-port="2" to-layer="463" to-port="21"/>
		<edge from-layer="450" from-port="2" to-layer="463" to-port="22"/>
		<edge from-layer="456" from-port="2" to-layer="463" to-port="23"/>
		<edge from-layer="462" from-port="2" to-layer="463" to-port="24"/>
		<edge from-layer="463" from-port="25" to-layer="464" to-port="0"/>
		<edge from-layer="464" from-port="3" to-layer="465" to-port="0"/>
		<edge from-layer="465" from-port="1" to-layer="466" to-port="0"/>
		<edge from-layer="466" from-port="3" to-layer="467" to-port="0"/>
		<edge from-layer="467" from-port="1" to-layer="468" to-port="0"/>
		<edge from-layer="318" from-port="1" to-layer="469" to-port="0"/>
		<edge from-layer="324" from-port="2" to-layer="469" to-port="1"/>
		<edge from-layer="330" from-port="2" to-layer="469" to-port="2"/>
		<edge from-layer="336" from-port="2" to-layer="469" to-port="3"/>
		<edge from-layer="342" from-port="2" to-layer="469" to-port="4"/>
		<edge from-layer="348" from-port="2" to-layer="469" to-port="5"/>
		<edge from-layer="354" from-port="2" to-layer="469" to-port="6"/>
		<edge from-layer="360" from-port="2" to-layer="469" to-port="7"/>
		<edge from-layer="366" from-port="2" to-layer="469" to-port="8"/>
		<edge from-layer="372" from-port="2" to-layer="469" to-port="9"/>
		<edge from-layer="378" from-port="2" to-layer="469" to-port="10"/>
		<edge from-layer="384" from-port="2" to-layer="469" to-port="11"/>
		<edge from-layer="390" from-port="2" to-layer="469" to-port="12"/>
		<edge from-layer="396" from-port="2" to-layer="469" to-port="13"/>
		<edge from-layer="402" from-port="2" to-layer="469" to-port="14"/>
		<edge from-layer="408" from-port="2" to-layer="469" to-port="15"/>
		<edge from-layer="414" from-port="2" to-layer="469" to-port="16"/>
		<edge from-layer="420" from-port="2" to-layer="469" to-port="17"/>
		<edge from-layer="426" from-port="2" to-layer="469" to-port="18"/>
		<edge from-layer="432" from-port="2" to-layer="469" to-port="19"/>
		<edge from-layer="438" from-port="2" to-layer="469" to-port="20"/>
		<edge from-layer="444" from-port="2" to-layer="469" to-port="21"/>
		<edge from-layer="450" from-port="2" to-layer="469" to-port="22"/>
		<edge from-layer="456" from-port="2" to-layer="469" to-port="23"/>
		<edge from-layer="462" from-port="2" to-layer="469" to-port="24"/>
		<edge from-layer="468" from-port="2" to-layer="469" to-port="25"/>
		<edge from-layer="469" from-port="26" to-layer="470" to-port="0"/>
		<edge from-layer="470" from-port="3" to-layer="471" to-port="0"/>
		<edge from-layer="471" from-port="1" to-layer="472" to-port="0"/>
		<edge from-layer="472" from-port="3" to-layer="473" to-port="0"/>
		<edge from-layer="473" from-port="1" to-layer="474" to-port="0"/>
		<edge from-layer="318" from-port="1" to-layer="475" to-port="0"/>
		<edge from-layer="324" from-port="2" to-layer="475" to-port="1"/>
		<edge from-layer="330" from-port="2" to-layer="475" to-port="2"/>
		<edge from-layer="336" from-port="2" to-layer="475" to-port="3"/>
		<edge from-layer="342" from-port="2" to-layer="475" to-port="4"/>
		<edge from-layer="348" from-port="2" to-layer="475" to-port="5"/>
		<edge from-layer="354" from-port="2" to-layer="475" to-port="6"/>
		<edge from-layer="360" from-port="2" to-layer="475" to-port="7"/>
		<edge from-layer="366" from-port="2" to-layer="475" to-port="8"/>
		<edge from-layer="372" from-port="2" to-layer="475" to-port="9"/>
		<edge from-layer="378" from-port="2" to-layer="475" to-port="10"/>
		<edge from-layer="384" from-port="2" to-layer="475" to-port="11"/>
		<edge from-layer="390" from-port="2" to-layer="475" to-port="12"/>
		<edge from-layer="396" from-port="2" to-layer="475" to-port="13"/>
		<edge from-layer="402" from-port="2" to-layer="475" to-port="14"/>
		<edge from-layer="408" from-port="2" to-layer="475" to-port="15"/>
		<edge from-layer="414" from-port="2" to-layer="475" to-port="16"/>
		<edge from-layer="420" from-port="2" to-layer="475" to-port="17"/>
		<edge from-layer="426" from-port="2" to-layer="475" to-port="18"/>
		<edge from-layer="432" from-port="2" to-layer="475" to-port="19"/>
		<edge from-layer="438" from-port="2" to-layer="475" to-port="20"/>
		<edge from-layer="444" from-port="2" to-layer="475" to-port="21"/>
		<edge from-layer="450" from-port="2" to-layer="475" to-port="22"/>
		<edge from-layer="456" from-port="2" to-layer="475" to-port="23"/>
		<edge from-layer="462" from-port="2" to-layer="475" to-port="24"/>
		<edge from-layer="468" from-port="2" to-layer="475" to-port="25"/>
		<edge from-layer="474" from-port="2" to-layer="475" to-port="26"/>
		<edge from-layer="475" from-port="27" to-layer="476" to-port="0"/>
		<edge from-layer="476" from-port="3" to-layer="477" to-port="0"/>
		<edge from-layer="477" from-port="1" to-layer="478" to-port="0"/>
		<edge from-layer="478" from-port="3" to-layer="479" to-port="0"/>
		<edge from-layer="479" from-port="1" to-layer="480" to-port="0"/>
		<edge from-layer="318" from-port="1" to-layer="481" to-port="0"/>
		<edge from-layer="324" from-port="2" to-layer="481" to-port="1"/>
		<edge from-layer="330" from-port="2" to-layer="481" to-port="2"/>
		<edge from-layer="336" from-port="2" to-layer="481" to-port="3"/>
		<edge from-layer="342" from-port="2" to-layer="481" to-port="4"/>
		<edge from-layer="348" from-port="2" to-layer="481" to-port="5"/>
		<edge from-layer="354" from-port="2" to-layer="481" to-port="6"/>
		<edge from-layer="360" from-port="2" to-layer="481" to-port="7"/>
		<edge from-layer="366" from-port="2" to-layer="481" to-port="8"/>
		<edge from-layer="372" from-port="2" to-layer="481" to-port="9"/>
		<edge from-layer="378" from-port="2" to-layer="481" to-port="10"/>
		<edge from-layer="384" from-port="2" to-layer="481" to-port="11"/>
		<edge from-layer="390" from-port="2" to-layer="481" to-port="12"/>
		<edge from-layer="396" from-port="2" to-layer="481" to-port="13"/>
		<edge from-layer="402" from-port="2" to-layer="481" to-port="14"/>
		<edge from-layer="408" from-port="2" to-layer="481" to-port="15"/>
		<edge from-layer="414" from-port="2" to-layer="481" to-port="16"/>
		<edge from-layer="420" from-port="2" to-layer="481" to-port="17"/>
		<edge from-layer="426" from-port="2" to-layer="481" to-port="18"/>
		<edge from-layer="432" from-port="2" to-layer="481" to-port="19"/>
		<edge from-layer="438" from-port="2" to-layer="481" to-port="20"/>
		<edge from-layer="444" from-port="2" to-layer="481" to-port="21"/>
		<edge from-layer="450" from-port="2" to-layer="481" to-port="22"/>
		<edge from-layer="456" from-port="2" to-layer="481" to-port="23"/>
		<edge from-layer="462" from-port="2" to-layer="481" to-port="24"/>
		<edge from-layer="468" from-port="2" to-layer="481" to-port="25"/>
		<edge from-layer="474" from-port="2" to-layer="481" to-port="26"/>
		<edge from-layer="480" from-port="2" to-layer="481" to-port="27"/>
		<edge from-layer="481" from-port="28" to-layer="482" to-port="0"/>
		<edge from-layer="482" from-port="3" to-layer="483" to-port="0"/>
		<edge from-layer="483" from-port="1" to-layer="484" to-port="0"/>
		<edge from-layer="484" from-port="3" to-layer="485" to-port="0"/>
		<edge from-layer="485" from-port="1" to-layer="486" to-port="0"/>
		<edge from-layer="318" from-port="1" to-layer="487" to-port="0"/>
		<edge from-layer="324" from-port="2" to-layer="487" to-port="1"/>
		<edge from-layer="330" from-port="2" to-layer="487" to-port="2"/>
		<edge from-layer="336" from-port="2" to-layer="487" to-port="3"/>
		<edge from-layer="342" from-port="2" to-layer="487" to-port="4"/>
		<edge from-layer="348" from-port="2" to-layer="487" to-port="5"/>
		<edge from-layer="354" from-port="2" to-layer="487" to-port="6"/>
		<edge from-layer="360" from-port="2" to-layer="487" to-port="7"/>
		<edge from-layer="366" from-port="2" to-layer="487" to-port="8"/>
		<edge from-layer="372" from-port="2" to-layer="487" to-port="9"/>
		<edge from-layer="378" from-port="2" to-layer="487" to-port="10"/>
		<edge from-layer="384" from-port="2" to-layer="487" to-port="11"/>
		<edge from-layer="390" from-port="2" to-layer="487" to-port="12"/>
		<edge from-layer="396" from-port="2" to-layer="487" to-port="13"/>
		<edge from-layer="402" from-port="2" to-layer="487" to-port="14"/>
		<edge from-layer="408" from-port="2" to-layer="487" to-port="15"/>
		<edge from-layer="414" from-port="2" to-layer="487" to-port="16"/>
		<edge from-layer="420" from-port="2" to-layer="487" to-port="17"/>
		<edge from-layer="426" from-port="2" to-layer="487" to-port="18"/>
		<edge from-layer="432" from-port="2" to-layer="487" to-port="19"/>
		<edge from-layer="438" from-port="2" to-layer="487" to-port="20"/>
		<edge from-layer="444" from-port="2" to-layer="487" to-port="21"/>
		<edge from-layer="450" from-port="2" to-layer="487" to-port="22"/>
		<edge from-layer="456" from-port="2" to-layer="487" to-port="23"/>
		<edge from-layer="462" from-port="2" to-layer="487" to-port="24"/>
		<edge from-layer="468" from-port="2" to-layer="487" to-port="25"/>
		<edge from-layer="474" from-port="2" to-layer="487" to-port="26"/>
		<edge from-layer="480" from-port="2" to-layer="487" to-port="27"/>
		<edge from-layer="486" from-port="2" to-layer="487" to-port="28"/>
		<edge from-layer="487" from-port="29" to-layer="488" to-port="0"/>
		<edge from-layer="488" from-port="3" to-layer="489" to-port="0"/>
		<edge from-layer="489" from-port="1" to-layer="490" to-port="0"/>
		<edge from-layer="490" from-port="3" to-layer="491" to-port="0"/>
		<edge from-layer="491" from-port="1" to-layer="492" to-port="0"/>
		<edge from-layer="318" from-port="1" to-layer="493" to-port="0"/>
		<edge from-layer="324" from-port="2" to-layer="493" to-port="1"/>
		<edge from-layer="330" from-port="2" to-layer="493" to-port="2"/>
		<edge from-layer="336" from-port="2" to-layer="493" to-port="3"/>
		<edge from-layer="342" from-port="2" to-layer="493" to-port="4"/>
		<edge from-layer="348" from-port="2" to-layer="493" to-port="5"/>
		<edge from-layer="354" from-port="2" to-layer="493" to-port="6"/>
		<edge from-layer="360" from-port="2" to-layer="493" to-port="7"/>
		<edge from-layer="366" from-port="2" to-layer="493" to-port="8"/>
		<edge from-layer="372" from-port="2" to-layer="493" to-port="9"/>
		<edge from-layer="378" from-port="2" to-layer="493" to-port="10"/>
		<edge from-layer="384" from-port="2" to-layer="493" to-port="11"/>
		<edge from-layer="390" from-port="2" to-layer="493" to-port="12"/>
		<edge from-layer="396" from-port="2" to-layer="493" to-port="13"/>
		<edge from-layer="402" from-port="2" to-layer="493" to-port="14"/>
		<edge from-layer="408" from-port="2" to-layer="493" to-port="15"/>
		<edge from-layer="414" from-port="2" to-layer="493" to-port="16"/>
		<edge from-layer="420" from-port="2" to-layer="493" to-port="17"/>
		<edge from-layer="426" from-port="2" to-layer="493" to-port="18"/>
		<edge from-layer="432" from-port="2" to-layer="493" to-port="19"/>
		<edge from-layer="438" from-port="2" to-layer="493" to-port="20"/>
		<edge from-layer="444" from-port="2" to-layer="493" to-port="21"/>
		<edge from-layer="450" from-port="2" to-layer="493" to-port="22"/>
		<edge from-layer="456" from-port="2" to-layer="493" to-port="23"/>
		<edge from-layer="462" from-port="2" to-layer="493" to-port="24"/>
		<edge from-layer="468" from-port="2" to-layer="493" to-port="25"/>
		<edge from-layer="474" from-port="2" to-layer="493" to-port="26"/>
		<edge from-layer="480" from-port="2" to-layer="493" to-port="27"/>
		<edge from-layer="486" from-port="2" to-layer="493" to-port="28"/>
		<edge from-layer="492" from-port="2" to-layer="493" to-port="29"/>
		<edge from-layer="493" from-port="30" to-layer="494" to-port="0"/>
		<edge from-layer="494" from-port="3" to-layer="495" to-port="0"/>
		<edge from-layer="495" from-port="1" to-layer="496" to-port="0"/>
		<edge from-layer="496" from-port="3" to-layer="497" to-port="0"/>
		<edge from-layer="497" from-port="1" to-layer="498" to-port="0"/>
		<edge from-layer="318" from-port="1" to-layer="499" to-port="0"/>
		<edge from-layer="324" from-port="2" to-layer="499" to-port="1"/>
		<edge from-layer="330" from-port="2" to-layer="499" to-port="2"/>
		<edge from-layer="336" from-port="2" to-layer="499" to-port="3"/>
		<edge from-layer="342" from-port="2" to-layer="499" to-port="4"/>
		<edge from-layer="348" from-port="2" to-layer="499" to-port="5"/>
		<edge from-layer="354" from-port="2" to-layer="499" to-port="6"/>
		<edge from-layer="360" from-port="2" to-layer="499" to-port="7"/>
		<edge from-layer="366" from-port="2" to-layer="499" to-port="8"/>
		<edge from-layer="372" from-port="2" to-layer="499" to-port="9"/>
		<edge from-layer="378" from-port="2" to-layer="499" to-port="10"/>
		<edge from-layer="384" from-port="2" to-layer="499" to-port="11"/>
		<edge from-layer="390" from-port="2" to-layer="499" to-port="12"/>
		<edge from-layer="396" from-port="2" to-layer="499" to-port="13"/>
		<edge from-layer="402" from-port="2" to-layer="499" to-port="14"/>
		<edge from-layer="408" from-port="2" to-layer="499" to-port="15"/>
		<edge from-layer="414" from-port="2" to-layer="499" to-port="16"/>
		<edge from-layer="420" from-port="2" to-layer="499" to-port="17"/>
		<edge from-layer="426" from-port="2" to-layer="499" to-port="18"/>
		<edge from-layer="432" from-port="2" to-layer="499" to-port="19"/>
		<edge from-layer="438" from-port="2" to-layer="499" to-port="20"/>
		<edge from-layer="444" from-port="2" to-layer="499" to-port="21"/>
		<edge from-layer="450" from-port="2" to-layer="499" to-port="22"/>
		<edge from-layer="456" from-port="2" to-layer="499" to-port="23"/>
		<edge from-layer="462" from-port="2" to-layer="499" to-port="24"/>
		<edge from-layer="468" from-port="2" to-layer="499" to-port="25"/>
		<edge from-layer="474" from-port="2" to-layer="499" to-port="26"/>
		<edge from-layer="480" from-port="2" to-layer="499" to-port="27"/>
		<edge from-layer="486" from-port="2" to-layer="499" to-port="28"/>
		<edge from-layer="492" from-port="2" to-layer="499" to-port="29"/>
		<edge from-layer="498" from-port="2" to-layer="499" to-port="30"/>
		<edge from-layer="499" from-port="31" to-layer="500" to-port="0"/>
		<edge from-layer="500" from-port="3" to-layer="501" to-port="0"/>
		<edge from-layer="501" from-port="1" to-layer="502" to-port="0"/>
		<edge from-layer="502" from-port="3" to-layer="503" to-port="0"/>
		<edge from-layer="503" from-port="1" to-layer="504" to-port="0"/>
		<edge from-layer="318" from-port="1" to-layer="505" to-port="0"/>
		<edge from-layer="324" from-port="2" to-layer="505" to-port="1"/>
		<edge from-layer="330" from-port="2" to-layer="505" to-port="2"/>
		<edge from-layer="336" from-port="2" to-layer="505" to-port="3"/>
		<edge from-layer="342" from-port="2" to-layer="505" to-port="4"/>
		<edge from-layer="348" from-port="2" to-layer="505" to-port="5"/>
		<edge from-layer="354" from-port="2" to-layer="505" to-port="6"/>
		<edge from-layer="360" from-port="2" to-layer="505" to-port="7"/>
		<edge from-layer="366" from-port="2" to-layer="505" to-port="8"/>
		<edge from-layer="372" from-port="2" to-layer="505" to-port="9"/>
		<edge from-layer="378" from-port="2" to-layer="505" to-port="10"/>
		<edge from-layer="384" from-port="2" to-layer="505" to-port="11"/>
		<edge from-layer="390" from-port="2" to-layer="505" to-port="12"/>
		<edge from-layer="396" from-port="2" to-layer="505" to-port="13"/>
		<edge from-layer="402" from-port="2" to-layer="505" to-port="14"/>
		<edge from-layer="408" from-port="2" to-layer="505" to-port="15"/>
		<edge from-layer="414" from-port="2" to-layer="505" to-port="16"/>
		<edge from-layer="420" from-port="2" to-layer="505" to-port="17"/>
		<edge from-layer="426" from-port="2" to-layer="505" to-port="18"/>
		<edge from-layer="432" from-port="2" to-layer="505" to-port="19"/>
		<edge from-layer="438" from-port="2" to-layer="505" to-port="20"/>
		<edge from-layer="444" from-port="2" to-layer="505" to-port="21"/>
		<edge from-layer="450" from-port="2" to-layer="505" to-port="22"/>
		<edge from-layer="456" from-port="2" to-layer="505" to-port="23"/>
		<edge from-layer="462" from-port="2" to-layer="505" to-port="24"/>
		<edge from-layer="468" from-port="2" to-layer="505" to-port="25"/>
		<edge from-layer="474" from-port="2" to-layer="505" to-port="26"/>
		<edge from-layer="480" from-port="2" to-layer="505" to-port="27"/>
		<edge from-layer="486" from-port="2" to-layer="505" to-port="28"/>
		<edge from-layer="492" from-port="2" to-layer="505" to-port="29"/>
		<edge from-layer="498" from-port="2" to-layer="505" to-port="30"/>
		<edge from-layer="504" from-port="2" to-layer="505" to-port="31"/>
		<edge from-layer="505" from-port="32" to-layer="506" to-port="0"/>
		<edge from-layer="506" from-port="3" to-layer="507" to-port="0"/>
		<edge from-layer="507" from-port="1" to-layer="508" to-port="0"/>
		<edge from-layer="508" from-port="3" to-layer="509" to-port="0"/>
		<edge from-layer="509" from-port="1" to-layer="510" to-port="0"/>
		<edge from-layer="318" from-port="1" to-layer="511" to-port="0"/>
		<edge from-layer="324" from-port="2" to-layer="511" to-port="1"/>
		<edge from-layer="330" from-port="2" to-layer="511" to-port="2"/>
		<edge from-layer="336" from-port="2" to-layer="511" to-port="3"/>
		<edge from-layer="342" from-port="2" to-layer="511" to-port="4"/>
		<edge from-layer="348" from-port="2" to-layer="511" to-port="5"/>
		<edge from-layer="354" from-port="2" to-layer="511" to-port="6"/>
		<edge from-layer="360" from-port="2" to-layer="511" to-port="7"/>
		<edge from-layer="366" from-port="2" to-layer="511" to-port="8"/>
		<edge from-layer="372" from-port="2" to-layer="511" to-port="9"/>
		<edge from-layer="378" from-port="2" to-layer="511" to-port="10"/>
		<edge from-layer="384" from-port="2" to-layer="511" to-port="11"/>
		<edge from-layer="390" from-port="2" to-layer="511" to-port="12"/>
		<edge from-layer="396" from-port="2" to-layer="511" to-port="13"/>
		<edge from-layer="402" from-port="2" to-layer="511" to-port="14"/>
		<edge from-layer="408" from-port="2" to-layer="511" to-port="15"/>
		<edge from-layer="414" from-port="2" to-layer="511" to-port="16"/>
		<edge from-layer="420" from-port="2" to-layer="511" to-port="17"/>
		<edge from-layer="426" from-port="2" to-layer="511" to-port="18"/>
		<edge from-layer="432" from-port="2" to-layer="511" to-port="19"/>
		<edge from-layer="438" from-port="2" to-layer="511" to-port="20"/>
		<edge from-layer="444" from-port="2" to-layer="511" to-port="21"/>
		<edge from-layer="450" from-port="2" to-layer="511" to-port="22"/>
		<edge from-layer="456" from-port="2" to-layer="511" to-port="23"/>
		<edge from-layer="462" from-port="2" to-layer="511" to-port="24"/>
		<edge from-layer="468" from-port="2" to-layer="511" to-port="25"/>
		<edge from-layer="474" from-port="2" to-layer="511" to-port="26"/>
		<edge from-layer="480" from-port="2" to-layer="511" to-port="27"/>
		<edge from-layer="486" from-port="2" to-layer="511" to-port="28"/>
		<edge from-layer="492" from-port="2" to-layer="511" to-port="29"/>
		<edge from-layer="498" from-port="2" to-layer="511" to-port="30"/>
		<edge from-layer="504" from-port="2" to-layer="511" to-port="31"/>
		<edge from-layer="510" from-port="2" to-layer="511" to-port="32"/>
		<edge from-layer="511" from-port="33" to-layer="512" to-port="0"/>
		<edge from-layer="512" from-port="3" to-layer="513" to-port="0"/>
		<edge from-layer="513" from-port="1" to-layer="514" to-port="0"/>
		<edge from-layer="514" from-port="1" to-layer="516" to-port="0"/>
		<edge from-layer="515" from-port="1" to-layer="516" to-port="1"/>
		<edge from-layer="516" from-port="2" to-layer="517" to-port="0"/>
		<edge from-layer="517" from-port="3" to-layer="518" to-port="0"/>
		<edge from-layer="518" from-port="1" to-layer="519" to-port="0"/>
	</edges>
	<meta_data>
		<MO_version value="2019.3.0-408-gac8584cb7"/>
		<cli_parameters>
			<blobs_as_inputs value="False"/>
			<caffe_parser_path value="DIR"/>
			<data_type value="float"/>
			<disable_nhwc_to_nchw value="False"/>
			<disable_omitting_optional value="False"/>
			<disable_resnet_optimization value="False"/>
			<enable_concat_optimization value="False"/>
			<enable_flattening_nested_params value="False"/>
			<enable_ssd_gluoncv value="False"/>
			<extensions value="DIR"/>
			<framework value="onnx"/>
			<freeze_placeholder_with_value value="{}"/>
			<generate_experimental_IR_V10 value="False"/>
			<input_model value="DIR/fruits.onnx"/>
			<input_model_is_text value="False"/>
			<k value="DIR/CustomLayersMapping.xml"/>
			<keep_quantize_ops_in_IR value="False"/>
			<keep_shape_ops value="False"/>
			<legacy_mxnet_model value="False"/>
			<log_level value="ERROR"/>
			<mean_scale_values value="{}"/>
			<mean_values value="()"/>
			<move_to_preprocess value="False"/>
			<output_dir value="DIR"/>
			<remove_memory value="False"/>
			<remove_output_softmax value="False"/>
			<reverse_input_channels value="False"/>
			<save_params_from_nd value="False"/>
			<scale_values value="()"/>
			<silent value="False"/>
			<steps value="False"/>
			<version value="False"/>
			<unset unset_cli_parameters="batch, counts, disable_fusing, disable_gfusing, finegrain_fusing, generate_deprecated_IR_V2, input, input_checkpoint, input_meta_graph, input_proto, input_shape, input_symbol, mean_file, mean_file_offsets, model_name, nd_prefix_name, output, placeholder_shapes, pretrained_model_name, saved_model_dir, saved_model_tags, scale, tensorboard_logdir, tensorflow_custom_layer_libraries, tensorflow_custom_operations_config_update, tensorflow_object_detection_api_pipeline_config, tensorflow_operation_patterns, tensorflow_subgraph_patterns, tensorflow_use_custom_operations_config"/>
		</cli_parameters>
	</meta_data>
</net>
